src/artifacts/ffn_best.pt (torch, 238625 bytes, 5 tensors)

net.0.weight f4 [256, 100]
0	0xb9901a9c	-0.00027485646
1	0x3dbb6abc	0.09151217
2	0x3d86d400	0.065834045
3	0xbcbc2197	-0.022965236
4	0xbcac920b	-0.021065732
5	0x3d1c6849	0.03818539
6	0x3d891fae	0.066954955
7	0x3cf6f2b9	0.030145036
8	0xbdbdfe9f	-0.09277081
9	0x3d116104	0.035492912
10	0x3cebf3ad	0.028802717
11	0x3a8343bf	0.0010014697
12	0xbd89591d	-0.0670645
13	0x3bf1a9ca	0.0073749768
14	0x3d763c60	0.06011617
15	0x3e2da4a3	0.16957335
16	0x3e45d99d	0.19321294
17	0xbd8411a9	-0.06448681
18	0xbc4fb16e	-0.01267658
19	0x3cfaa061	0.030594053
20	0x3d4ffbb8	0.050777167
21	0x3ccb6029	0.024826126
22	0xbd19d558	-0.037556976
23	0x3e20e37c	0.15711778
24	0x3cfc90b6	0.030830722
25	0xbc0352b3	-0.0080153225
26	0xbcff29c1	-0.03114784
27	0x3dbcc17f	0.09216594
28	0xbc181ca9	-0.009284177
29	0x3dd8c22f	0.105839126
30	0x3ce02200	0.027359962
31	0xbd8d8d28	-0.06911689
32	0x3b0f396a	0.002185429
33	0x3d8141c7	0.06311374
34	0xbd519188	-0.05116418
35	0xbda1c58a	-0.07899006
36	0x3e27beac	0.1638133
37	0x3e0297be	0.12753198
38	0xbcb7642a	-0.02238663
39	0xbe133e26	-0.14379176
40	0xbc710d39	-0.014712625
41	0xbe476c28	-0.19474852
42	0x3dfe95ed	0.1243094
43	0x3d514edc	0.051100597
44	0x3da17232	0.07883109
45	0x3caf81b5	0.021424154
46	0xbce07d4a	-0.027403492
47	0xbc78d90a	-0.015188465
48	0xbbff47bd	-0.0077905343
49	0xbd935bf9	-0.07195277
50	0x3cdb057f	0.02673602
51	0x3cce1a1d	0.025158936
52	0xbc276a41	-0.010218204
53	0x3d59b7dd	0.05315386
54	0xbd945e5b	-0.072445594
55	0xbe170fdd	-0.14752145
56	0xbcd28e0a	-0.025702495
57	0xbd452fea	-0.048141398
58	0x3d98c678	0.0745973
59	0x3d31f727	0.043448593
60	0x3daad0ea	0.083406284
61	0x3dced0c4	0.10098413
62	0xbcb9f435	-0.022699455
63	0x3ce6924f	0.028145937
64	0x3d2fb1bb	0.042894106
65	0xbd16d77a	-0.03682659
66	0x3def904e	0.11697446
67	0xbc88e9f9	-0.01671313
68	0x3db23e6c	0.08703312
69	0xbd7d163e	-0.06178879
70	0xbbeb0c94	-0.0071731303
71	0xbcc6ebf3	-0.024282431
72	0x3e1c0fac	0.15240353
73	0x3d958829	0.07301361
74	0xbb901f33	-0.0043982505
75	0xbde1cf4d	-0.110258676
76	0x3e28e0aa	0.16491953
77	0x3d75c28b	0.059999984
78	0x3d872b6d	0.0660008
79	0xbdb30cba	-0.08742662
80	0xbd06f043	-0.032943975
81	0xbccdc6d0	-0.025119215
82	0x3d9f47ea	0.077773884
83	0xbdbf6e7a	-0.093472436
84	0x3daa136a	0.08304484
85	0x3d8f8c96	0.070092365
86	0x3d5898ab	0.05287997
87	0x3d0d393f	0.034478422
88	0x3ce2b127	0.027672363
89	0xbc7ea6ba	-0.01554268
90	0x3da30598	0.07960051
91	0xbd183ef8	-0.037169427
92	0xbc627f85	-0.013824348
93	0xbcadd558	-0.021219894
94	0xba9c4757	-0.0011923116
95	0x3e1b980d	0.15194722
96	0x3d1ec375	0.03876062
97	0xbcea0434	-0.028566457
98	0x3ca7a729	0.02046545
99	0x3b3d6014	0.0028896378
100	0xbc31ee77	-0.010860077
101	0xbb7cdeda	-0.0038584978
102	0xbca6aff1	-0.020347567
103	0x3d9a7bd6	0.07543151
104	0x3cf61cdc	0.030043058
105	0xbcdb8870	-0.026798457
106	0xbd8e6290	-0.06952393
107	0x3da67a30	0.08128774
108	0x3d1ac520	0.03778565
109	0x3ceaffd1	0.028686436
110	0x3d29dfbf	0.041473147
111	0x3ceeccc0	0.029150367
112	0x3b5d8040	0.0033798367
113	0xb998bfac	-0.00029134506
114	0x3dd3bc6e	0.103386745
115	0xbdc6de6b	-0.097103916
116	0xbba9016b	-0.0051576397
117	0x3e2c835a	0.16846982
118	0x3d52fd17	0.051510897
119	0x3cd7d5c9	0.026347058
120	0x3c2f7ce8	0.010710932
121	0xbd4ed0a5	-0.050491948
122	0xbc844020	-0.016143858
123	0xbb9ff745	-0.0048817717
124	0xbda7f1b3	-0.08200397
125	0x3c3bc467	0.0114604
126	0x3d22cda2	0.039746888
127	0x3c013700	0.007886648
128	0x3dc0a309	0.094060965
129	0x3cd9e1b3	0.02659688
130	0x3c71595c	0.014730778
131	0xbc153956	-0.009107908
132	0x3c1dbd5c	0.009627666
133	0x3e130077	0.14355646
134	0x3d864496	0.065560505
135	0x3d6f010e	0.058350615
136	0xbde7cd16	-0.11318414
137	0x3db21dc5	0.08697084
138	0xbd04d470	-0.03242916
139	0x3d84cf96	0.064849064
140	0x3e41bafc	0.18918985
141	0x3d7c90ee	0.061661653
142	0xbbe72574	-0.0070540253
143	0xbd2a2d10	-0.04154688
144	0xbbb89d5e	-0.005633994
145	0x3e266033	0.16247635
146	0x3dda85f9	0.106700845
147	0x3d7ba314	0.06143482
148	0xbdc45441	-0.09586383
149	0xbd8d8be7	-0.0691145
150	0x3e114a0d	0.14188404
151	0xbbe5d737	-0.007014181
152	0xbdef18b8	-0.116746366
153	0xbcedbd29	-0.029020863
154	0x3d977a05	0.0739632
155	0xbd1a242c	-0.037632152
156	0xbe049211	-0.12946345
157	0x3e003684	0.12520796
158	0x3d1e99c4	0.03872086
159	0xbd8a7408	-0.067604125
160	0x3d020aa1	0.031748418
161	0x3c421d7a	0.011847848
162	0xbd5b9e9d	-0.053618062
163	0xbd5f75b4	-0.05455561
164	0xbdc4b861	-0.0960548
165	0x3e0d83eb	0.13819854
166	0x3d9d945c	0.07694313
167	0xbbb11854	-0.0054045115
168	0x3af78d06	0.0018886633
169	0xbcb34d2d	-0.021887386
170	0xbaa5f47e	-0.0012661365
171	0x3dc3014f	0.09521734
172	0xbe0c8477	-0.13722406
173	0x3d585eb9	0.05282471
174	0x3c42b10e	0.011883033
175	0xbd6ffbe4	-0.05858983
176	0xbcaf897d	-0.021427864
177	0xbc58f4e5	-0.013241981
178	0x3d340a07	0.043954875
179	0x3c6a0245	0.014282768
180	0xbc63b1bd	-0.013897357
181	0x3a4b1c6c	0.00077480706
182	0xbd2058c5	-0.039147157
183	0xbd0dc191	-0.034608427
184	0xbd5af077	-0.05345198
185	0x3d45640a	0.048191108
186	0xbdb82382	-0.089911476
187	0xbdb4c4bf	-0.08826589
188	0x3b0fe82b	0.0021958451
189	0x3ceb70ea	0.028740365
190	0x3dd2683d	0.10273788
191	0xbd7950ef	-0.0608682
192	0xbe09cac0	-0.13456249
193	0x3d71b94b	0.0590146
194	0x3da9fe56	0.08300464
195	0xbda92c57	-0.0826041
196	0x3dfc2a6f	0.12312781
197	0x3da65e37	0.08123439
198	0x3d5914a2	0.052998193
199	0xbc9adbcb	-0.018903634
200	0xbd922ad3	-0.07137074
201	0x3db30f0c	0.08743104
202	0x3a7e2b61	0.0009695795
203	0x3c9d343f	0.019189952
204	0xbd027495	-0.031849463
205	0xbd843c0a	-0.06456764
206	0x3d5917de	0.053001277
207	0x3d7121b7	0.058870044
208	0x3d868598	0.0656845
209	0x3cc78879	0.024357067
210	0x3d37e996	0.0449005
211	0x3ceb74de	0.02874225
212	0x3caaad34	0.020834543
213	0xbd8d32ee	-0.0689448
214	0x3d77e9cb	0.060525697
215	0x3d642c23	0.055706155
216	0x3cf8d060	0.030372798
217	0x3dd3cdc2	0.103419796
218	0x3dfcb758	0.123396575
219	0x3da570ae	0.080781326
220	0x3ce79e34	0.02827368
221	0x3d47419f	0.048646566
222	0x3d6394fa	0.055561997
223	0xbe38f87e	-0.18063542
224	0x3c6cfb08	0.014464147
225	0x3d8a78bb	0.06761309
226	0xbd41f215	-0.047350008
227	0xbc38d965	-0.0112823
228	0x3d301549	0.04298905
229	0xbd9a7479	-0.07541747
230	0x3c48fdbe	0.012267528
231	0x3d46dfff	0.048553463
232	0xbb480bf0	-0.0030524693
233	0xbd908f7d	-0.07058618
234	0x3c44944a	0.0119982455
235	0xbd86afde	-0.06576513
236	0x3d012e26	0.03153815
237	0xbc24d8f1	-0.0100614885
238	0x3d92263d	0.071361996
239	0x3d3634ca	0.044483937
240	0xbdb1f04f	-0.08688413
241	0x3e1d56b3	0.15365104
242	0x3dca5476	0.09879391
243	0xbcd9d50e	-0.02659085
244	0x3c556bcd	0.01302619
245	0xbe240ef8	-0.16021335
246	0x3d85d36e	0.06534468
247	0xbdf66350	-0.12030661
248	0xbe01ffe0	-0.12695265
249	0x3dfda7c3	0.12385514
250	0x3d926d72	0.07149781
251	0x3d466e8c	0.04844527
252	0xbe36b3b7	-0.17841993
253	0xbc26b692	-0.010175364
254	0xbd0fa9c3	-0.035074007
255	0x3bd26da0	0.0064217597

net.0.bias f4 [256]
0	0x3e35aec4	0.17742449
1	0x3e888c90	0.2666974
2	0x3eac1ae3	0.33614263
3	0x3e0597c2	0.13046172
4	0x3e7b8a79	0.24564542
5	0x3e489e8f	0.19591735
6	0x3cb975c2	0.02263916
7	0x3e046be1	0.12931778
8	0xba36acb1	-0.0006968482
9	0x3e364afe	0.17802045
10	0x3e5a638f	0.21327041
11	0x3e8b3af2	0.2719341
12	0x3db56a73	0.08858194
13	0x3e238e70	0.15972304
14	0x3e600547	0.21877013
15	0x3d14c1f8	0.036317796
16	0x3e85d788	0.26141
17	0x3dd30297	0.10303228
18	0x3e94baac	0.2904867
19	0x3dd715ba	0.10502191
20	0x3e026967	0.1273552
21	0x3e54334b	0.20722692
22	0x3e61b63a	0.2204217
23	0x3e6b298d	0.22965069
24	0x3d47be03	0.048765194
25	0x3e177cb9	0.14793672
26	0x3d66b790	0.056327403
27	0x3e2b380f	0.16720603
28	0x3e1c86ca	0.15285793
29	0x3e33a957	0.17545067
30	0x3e167399	0.14692535
31	0x3e263763	0.16232066
32	0x3e68991d	0.22714658
33	0x3e6eea5e	0.23331591
34	0x3d747d0d	0.05968957
35	0x3e753652	0.23946503
36	0x3e49e03b	0.19714443
37	0x3de23913	0.11046042
38	0x3e62e5d2	0.22157982
39	0x3e20a316	0.15687212
40	0x3decd8bc	0.11564776
41	0x3e253365	0.16132887
42	0x3e652431	0.22377087
43	0x3c81c789	0.015842216
44	0x3eaa8d0c	0.33310735
45	0x3e399f3a	0.18127146
46	0x3e2784cc	0.16359252
47	0x3e744cbd	0.23857398
48	0x3e97da39	0.29658678
49	0x3e02c740	0.1277132
50	0x3e588ce5	0.21147497
51	0x3d6313ac	0.055438682
52	0x3e0e1389	0.1387464
53	0x3e32839b	0.17433016
54	0x3d4cb9f6	0.049982034
55	0x3e6087f1	0.21926858
56	0x3e3a5a85	0.18198593
57	0x3e66a08e	0.22522184
58	0x3dffe223	0.12494304
59	0x3e7856cf	0.24251865
60	0x3e7a523d	0.24445434
61	0x3daa5fa8	0.08319026
62	0x3e41e40b	0.18934648
63	0x3ea7a3c1	0.32742122
64	0x3e668149	0.22510256
65	0x3e791bea	0.24327055
66	0x3e2759c5	0.16342838
67	0x3e250e6f	0.16118787
68	0x3e24d8d7	0.16098343
69	0x3e18921a	0.14899483
70	0x3e1e86f0	0.15481162
71	0x3e83e91e	0.25763792
72	0x3e3413f6	0.1758574
73	0x3dde7d05	0.10863689
74	0x3e8b787c	0.2724036
75	0x3e678689	0.22609915
76	0x3e7fe9fd	0.24991603
77	0x3db54952	0.08851875
78	0x3defcce0	0.11708999
79	0x3e440cbc	0.19145483
80	0x3e3fd653	0.18734102
81	0x3e80dfb0	0.2517066
82	0x3d9ad835	0.075607695
83	0x3e7c4454	0.2463544
84	0x3e402b42	0.18766502
85	0x3e7b66c6	0.24550924
86	0x3db18bdf	0.086692564
87	0x3ea8865a	0.32915002
88	0x3e9a1866	0.3009674
89	0x3e5fcccb	0.21855466
90	0x3d73c8c8	0.05951765
91	0x3e1feb1d	0.15617032
92	0x3d61d671	0.055136148
93	0x3e26ab94	0.1627639
94	0x3df349bd	0.11879299
95	0x3e238c40	0.1597147
96	0x3ddbbd31	0.10729445
97	0x3ea0873a	0.3135317
98	0x3e8432fc	0.25820148
99	0x3e1a50b1	0.15069844
100	0x3d8a5bdd	0.06755803
101	0x3e6715e4	0.22566944
102	0x3ddf8c64	0.10915449
103	0x3e8ce28f	0.275166
104	0x3e1e757e	0.15474507
105	0x3e6ac779	0.22927655
106	0x3e1175da	0.14205113
107	0x3d8541d4	0.06506696
108	0x3d2de4e8	0.04245463
109	0x3e61f589	0.2206632
110	0x3e5f6c40	0.21818638
111	0x3e308e01	0.1724167
112	0x3e1b9f83	0.15197568
113	0x3e03ea36	0.12882313
114	0x3dab8e16	0.0837671
115	0x3c332db4	0.010936189
116	0x3e84d246	0.25941676
117	0x3e54faa6	0.2079874
118	0x3dd979eb	0.10618957
119	0x3e8642ac	0.26222742
120	0x3e5934ab	0.21211497
121	0x3dbf35b0	0.09336412
122	0x3e2b8949	0.16751589
123	0x3e1551de	0.14582011
124	0x3e399d1e	0.18126342
125	0x3e76b4e2	0.24092439
126	0x3df59d0d	0.11992846
127	0x3de021c2	0.10943939
128	0xbc4e67c4	-0.012597982
129	0x3e1aa566	0.15102157
130	0x3e3e9a34	0.18613511
131	0x3e389467	0.18025361
132	0x3d96cb50	0.073629975
133	0x3dc0c689	0.094128676
134	0x3de63f05	0.11242489
135	0x3e85a36a	0.26101238
136	0x3e0d2003	0.13781743
137	0x3db0927c	0.0862169
138	0x3e061fb7	0.13098036
139	0x3dab8779	0.08375449
140	0x3e7beffd	0.24603267
141	0x3e69dd92	0.22838429
142	0x3e0662f7	0.1312369
143	0x3e1677bc	0.14694113
144	0x3e67ae36	0.2262505
145	0x3e59c185	0.21265228
146	0x3e18324e	0.1486294
147	0x3e419bdd	0.18907113
148	0x3da89328	0.08231193
149	0x3e6cf95f	0.23142003
150	0x3e68378e	0.22677442
151	0x3e961520	0.29312992
152	0x3e70d311	0.23518015
153	0x3dcbbbbc	0.09947917
154	0x3d8e32b7	0.06943267
155	0x3e0cc6bb	0.13747685
156	0x3e08070e	0.13283941
157	0x3e3cba76	0.18430504
158	0x3e1bfe86	0.15233812
159	0x3e40933b	0.18806164
160	0x3d64f27b	0.05589531
161	0x3e7e982f	0.24862741
162	0x3e0b0c7e	0.13578984
163	0x3e1a351b	0.1505932
164	0x3e2d5ce5	0.16929968
165	0x3e305dd0	0.17223287
166	0x3e716373	0.23573093
167	0x3e760d27	0.24028455
168	0x3d9de22b	0.07709154
169	0x3e8fd739	0.2809389
170	0x3e8d9e13	0.27659664
171	0x3e6d1909	0.23154081
172	0x3db7ef84	0.08981231
173	0x3d286a41	0.041116957
174	0x3e967491	0.29385808
175	0x3e6551f0	0.22394538
176	0x3dbe27cb	0.09284934
177	0x3e7d20ee	0.24719593
178	0xbcda6cad	-0.026663149
179	0x3e6c23ba	0.23060504
180	0x3e499ceb	0.19688766
181	0x3e31c907	0.17361842
182	0x3da77c8a	0.08178051
183	0x3e11e836	0.14248738
184	0x3e4b5f10	0.19860482
185	0x3e4d16a2	0.20028165
186	0x3dd9d8ca	0.10637052
187	0x3de6011e	0.11230682
188	0x3e2dc051	0.16967894
189	0x3d5895c3	0.0528772
190	0x3e7852db	0.24250357
191	0x3e267a1a	0.16257516
192	0x3d7d3e92	0.06182725
193	0x3d5525dd	0.052038062
194	0x3e3444a4	0.1760431
195	0x3e835ae0	0.2565527
196	0x3e7cbb82	0.24680904
197	0x3e8b9f1b	0.27269825
198	0x3e50355d	0.20332856
199	0x3e5d6816	0.21621737
200	0x3df2d6bd	0.11857364
201	0x3e8ee09c	0.27905738
202	0x3e0f6d88	0.14006627
203	0x3dcd0286	0.10010247
204	0x3de2b651	0.1106993
205	0x3e17cee2	0.14825013
206	0x3e6c2d3a	0.23064128
207	0x3e541b77	0.20713602
208	0x3cfc85bb	0.030825486
209	0x3db97f81	0.090575226
210	0x3e5a7912	0.21335247
211	0x3e22336d	0.1583993
212	0x3e4d58cd	0.20053406
213	0x3ddf1551	0.10892738
214	0x3e126ce3	0.1429935
215	0x3e19209a	0.14953843
216	0x3d6b7c6a	0.057491697
217	0x3de1335d	0.10996125
218	0x3e3caad6	0.18424544
219	0x3e163dda	0.14672032
220	0x3da5421e	0.080692515
221	0x3e39c7fb	0.18142693
222	0x3d1a0531	0.037602607
223	0x3e71f69b	0.23629229
224	0x3e3453af	0.17610048
225	0x3e1a263f	0.15053652
226	0x3dfa06d8	0.122083366
227	0x3db804b0	0.08985269
228	0x3e0607d1	0.13088919
229	0x3deda2ba	0.11603303
230	0x3e97fb5a	0.29683954
231	0x3e585d03	0.21129231
232	0x3df47894	0.11937061
233	0x3e1ef754	0.15524036
234	0x3dd8f6e2	0.10593964
235	0x3e6589ba	0.2241582
236	0x3d193781	0.03740645
237	0x3d8bf94a	0.068346575
238	0x3e940aed	0.28914586
239	0x3e14fb58	0.14549005
240	0x3eaf9b08	0.34297967
241	0x3e31c8e1	0.17361785
242	0x3d992f28	0.074796975
243	0x3e4bf153	0.19916277
244	0x3df42316	0.119207546
245	0x3e0e40ad	0.1389186
246	0x3de299bd	0.110644795
247	0x3e9a6312	0.3015371
248	0x3dd4360c	0.10361871
249	0x3e873923	0.2641078
250	0x3e466b1e	0.193768
251	0x3e01735a	0.1264166
252	0x3e69f8f6	0.22848877
253	0x3e9418e3	0.28925237
254	0x3e89c471	0.26907685
255	0x3d35c1bf	0.044374224

net.3.weight f4 [128, 256]
0	0xbd2085b5	-0.039190013
1	0xbd1c644e	-0.038181596
2	0xbd3c4d9d	-0.045972455
3	0x3d23d727	0.040000107
4	0xbc908a66	-0.017644119
5	0x3cf626d7	0.030047817
6	0xbd708b88	-0.058726817
7	0x3d41cf5c	0.047316894
8	0x3d0cfdb0	0.034421623
9	0xbd5b0f10	-0.05348116
10	0xbd5911e2	-0.05299557
11	0x390131f1	0.00012321003
12	0xbd6b1a25	-0.05739798
13	0x3c103054	0.008800585
14	0x3d1169b5	0.0355012
15	0xbd244616	-0.0401059
16	0xbd27e1f1	-0.04098696
17	0xbbaf9f99	-0.0053596017
18	0x3cc5c74e	0.024142887
19	0xbcc7678c	-0.024341367
20	0xbcc212e4	-0.023690648
21	0xbd5ae5ca	-0.0534418
22	0xbd89e105	-0.06732372
23	0xbb000ae9	-0.0019537753
24	0x3cb6b75a	0.022304226
25	0xbcf9702d	-0.030448997
26	0xbd02e9eb	-0.031961363
27	0xb987021b	-0.00025750775
28	0x3cd89c54	0.02644173
29	0xbd2259c6	-0.039636396
30	0x3c929257	0.017892046
31	0x3d45266b	0.04813234
32	0x3b80c6d1	0.0039299508
33	0xbcc255fa	-0.023722637
34	0xbcd5ab72	-0.026082728
35	0xbcda7fa7	-0.026672198
36	0xbd968a62	-0.07350613
37	0xbd1a1be4	-0.037624255
38	0xbd796e23	-0.06089605
39	0xbcb52426	-0.022111963
40	0xbd42a874	-0.04752393
41	0x3ca261e2	0.019822065
42	0xbd80ba60	-0.06285548
43	0x3c84dba4	0.016218014
44	0x3c38f151	0.011288003
45	0x3d1129df	0.035440322
46	0xbd7e314c	-0.062058732
47	0xbd044c83	-0.03229953
48	0xbc144890	-0.009050503
49	0x3cd554d5	0.026041428
50	0x3d1d5cac	0.038418457
51	0xbd4e9302	-0.050433166
52	0xbc365845	-0.0111294435
53	0xbd417f00	-0.047240257
54	0xbc92c989	-0.017918365
55	0xbc05573d	-0.008138475
56	0x3c13f86c	0.009031396
57	0xbd1aeebf	-0.037825342
58	0xbd7ce65f	-0.061743136
59	0xbd708ea3	-0.05872978
60	0xbd689f54	-0.056792572
61	0x3c3ff643	0.011716428
62	0x3ba96aa5	0.0051701837
63	0x3a3c14c1	0.00071747234
64	0xbd850a1a	-0.06496067
65	0xbd923788	-0.07139498
66	0x3d1a07b4	0.037605003
67	0x3c948eca	0.018134493
68	0xbd272bb2	-0.040813155
69	0xbd246295	-0.040133078
70	0x3ca753b4	0.020425655
71	0xbd853b20	-0.06505418
72	0x3d37b2be	0.044848196
73	0xbd47ca56	-0.048776947
74	0x3d283a61	0.0410713
75	0xbd847e1f	-0.06469368
76	0x3b1300c2	0.0022430872
77	0x3ca7aa30	0.020466894
78	0xbc14eb1b	-0.009089257
79	0xbd8e2099	-0.06939811
80	0x3d3d0d90	0.046155512
81	0xbd3c49a9	-0.045968685
82	0xbbfb1541	-0.007662446
83	0xbd8f070c	-0.06983766
84	0xbd2b31c3	-0.041795503
85	0x3bb5f59c	0.0055529606
86	0xbd7fc603	-0.062444698
87	0xbd75f07d	-0.0600438
88	0xbced83a0	-0.028993428
89	0x3cf4b8a6	0.029873203
90	0x3c635a52	0.0138765145
91	0xbd0dd64b	-0.034628194
92	0x3c3fb6fc	0.011701342
93	0xbd84f291	-0.06491578
94	0x3cb1e656	0.021716278
95	0x3d024a08	0.031808883
96	0xbd0baae2	-0.034098513
97	0xbbb137b5	-0.005408252
98	0xbd5b1483	-0.05348636
99	0x3d005342	0.0313294
100	0xbcd8119d	-0.026375586
101	0xbd4ad180	-0.0495162
102	0xbd48b054	-0.048996285
103	0x3c43aabd	0.011942563
104	0xbd74d4ff	-0.05977344
105	0x3d1e5a86	0.03866055
106	0xba3e6fd4	-0.00072645885
107	0x3cabeaa8	0.020985916
108	0x3adee693	0.0017005972
109	0x3c98c561	0.018648805
110	0x3c58c8c0	0.013231456
111	0x3d1fe5a4	0.03903736
112	0x3cf5e054	0.030014195
113	0xbc8a3765	-0.016872117
114	0x3bbc8bed	0.005753985
115	0xbcdc1b86	-0.026868593
116	0xbc49ac92	-0.01230921
117	0xbc054d7c	-0.0081361495
118	0x3c224270	0.009903535
119	0x3d3cc3b0	0.04608506
120	0x3c69f608	0.01427985
121	0xbb284bd2	-0.0025679958
122	0x3d1c4227	0.038149025
123	0xbd673d41	-0.0564549
124	0x3d0f0a7f	0.03492212
125	0xbd857e2e	-0.065182075
126	0xbcebff72	-0.02880833
127	0xbcde646b	-0.027147492
128	0x3cbcc3ee	0.023042645
129	0xbd41eaef	-0.04734319
130	0xbd59efec	-0.053207323
131	0xbc3390cf	-0.010959818
132	0x3c825032	0.01590738
133	0xbd904fb7	-0.070464544
134	0xbc10583c	-0.008810099
135	0xbd11d63b	-0.035604697
136	0x3d25e046	0.040497087
137	0x3d292238	0.0412924
138	0x3c189b89	0.009314426
139	0x3b9d08c3	0.0047923042
140	0xbd02abaa	-0.031901993
141	0x3d29f926	0.041497372
142	0xbd3b81c8	-0.045778066
143	0xbc9bbb04	-0.019010074
144	0x3d32962c	0.043600246
145	0xbcdf3490	-0.027246743
146	0x3ccd5a5d	0.025067503
147	0xbc8e9e01	-0.017409327
148	0xbcca71e1	-0.024712505
149	0xbd88f82c	-0.0668796
150	0xbd581d2f	-0.052762207
151	0xbb7c8906	-0.003853382
152	0xbd882e7a	-0.0664949
153	0x3c9c00b6	0.019043308
154	0x3ade12d3	0.0016942866
155	0xbcb561e8	-0.022141412
156	0x3a7b3e20	0.00095841475
157	0xbd5c4727	-0.053778794
158	0xbd8c54b4	-0.06852093
159	0x3d1f1e90	0.038847506
160	0x3c67b45f	0.014142125
161	0xbd5b40be	-0.05352854
162	0xbd5f625d	-0.054537166
163	0xbd6e9340	-0.058245897
164	0xbd8d7ef9	-0.06908984
165	0x3d2dac3e	0.04240059
166	0xbcd8476b	-0.026401242
167	0xbd83c84c	-0.06434688
168	0xbd17d8b0	-0.037071884
169	0xbcab6247	-0.020920886
170	0x3b9697d4	0.004595736
171	0xbc9a81e3	-0.018860763
172	0x3a26ca20	0.00063625164
173	0xbd7f0e67	-0.062269595
174	0x3d5006dc	0.05078779
175	0x3d2412a7	0.04005685
176	0xbce2cef5	-0.027686575
177	0xbce43af8	-0.02786015
178	0xbd2ffbe2	-0.042964824
179	0x3c6c74e9	0.01443217
180	0xbcafce3e	-0.021460649
181	0xbd009001	-0.031387333
182	0x3cb295c9	0.021799939
183	0xbd2f597d	-0.042809952
184	0xbc92879b	-0.017886927
185	0x3d2708e3	0.04077996
186	0xbc252c02	-0.010081293
187	0xbd2adfe5	-0.04171743
188	0xbd15688c	-0.036476657
189	0xbc21ee6f	-0.009883507
190	0x3d1080e0	0.035279155
191	0x3c53f80b	0.012937556
192	0xbbf33d9a	-0.007423115
193	0xbd1e4a56	-0.03864511
194	0xbd9153c2	-0.07096054
195	0x3d2d3c68	0.042293936
196	0x3c987b7b	0.018613568
197	0xbce4e6d9	-0.027942108
198	0x3c9bce3f	0.019019244
199	0xbd3d01a7	-0.046144154
200	0xbd0ff00f	-0.035141047
201	0xbc58a5fe	-0.013223169
202	0x3b023a0d	0.0019871027
203	0xbd49727b	-0.049181443
204	0x3d426ab9	0.04746506
205	0x3d4d335f	0.05009782
206	0xbc526c34	-0.01284318
207	0x3c3130ea	0.010814885
208	0xbd057d46	-0.032590173
209	0xb98d81b9	-0.00026990267
210	0x3cc49e9a	0.024001408
211	0x3c90870b	0.017642519
212	0xbb96a9ae	-0.004597864
213	0x3c57b9ed	0.013166887
214	0xbd91c052	-0.0711676
215	0x3b29c4ef	0.0025904735
216	0x3ac3bd73	0.001493378
217	0xbd9ace15	-0.07558838
218	0x3ae3b9c0	0.0017374083
219	0xbb5a554b	-0.0033314999
220	0x3d2dd955	0.042443592
221	0xbd46b35f	-0.048510905
222	0x3d32bb98	0.043635935
223	0x3aa08713	0.0012247287
224	0xbd85b2a1	-0.065282114
225	0xbd896d9b	-0.06710359
226	0xbcc1f9c3	-0.023678666
227	0xbbf03c27	-0.0073313895
228	0xbd1e492a	-0.038643993
229	0xbd8180f7	-0.06323426
230	0xbd233594	-0.039846018
231	0x3ce073b1	0.027398916
232	0xbcf7c406	-0.030244838
233	0xbc67710c	-0.014126074
234	0xbd8bb0d4	-0.06820837
235	0xbcc79bf6	-0.02436636
236	0xbca6c8ef	-0.020359484
237	0xbb13cbc0	-0.0022551864
238	0xbd2a9f15	-0.04165562
239	0x3c87a9db	0.016560486
240	0x3d48f5bc	0.049062476
241	0x3c89423b	0.016755214
242	0x3ca2aa8b	0.019856712
243	0xbd3a2762	-0.045447715
244	0xbd3d73ce	-0.046253018
245	0x3c59d95b	0.0132964505
246	0x3b9095a9	0.004412372
247	0xbd4ba912	-0.049721785
248	0xbd1dea32	-0.038553424
249	0xbc6ca6bb	-0.0144440485
250	0x3c53a7cb	0.012918423
251	0xbd1470a2	-0.036240228
252	0xbc5f740f	-0.01363851
253	0x3b70c67d	0.0036739402
254	0xbc9bd342	-0.019021634
255	0xbba8b272	-0.0051482255

net.3.bias f4 [128]
0	0xbd70c4b8	-0.058781356
1	0x3c0a929f	0.008457809
2	0xbcce30c0	-0.02516973
3	0x3ed787d2	0.4209581
4	0x3f13a5da	0.57674944
5	0xbd8d3748	-0.0689531
6	0xbd078958	-0.033089966
7	0x3d0bb8f7	0.034111943
8	0xbd947f98	-0.07250899
9	0x3eee86d5	0.46587244
10	0x3efdf0e9	0.49597862
11	0x3cd5bdfa	0.026091564
12	0xbd57f860	-0.052727103
13	0x3ed358dc	0.41278732
14	0x3f0c1742	0.5472299
15	0x3a55eae4	0.00081603066
16	0x3eea368e	0.45744747
17	0x3f077d9b	0.52926034
18	0x3ed5010b	0.41602358
19	0x3f4b512b	0.7942073
20	0x3f231326	0.63701093
21	0x3f0aedfb	0.5426938
22	0x3f1726a0	0.5904331
23	0xbc1d91ef	-0.009617313
24	0x3efa6b11	0.4890981
25	0x3f3673c4	0.71270394
26	0xbd46d331	-0.04854125
27	0x3ee44206	0.44581622
28	0x3f18f459	0.59747845
29	0x3f66cf0d	0.90159684
30	0x3d1f816d	0.03894179
31	0x3f235adb	0.6381051
32	0x3c392c1e	0.011302022
33	0x3f2f6f33	0.6852905
34	0x3f0d0784	0.5508959
35	0x3f1b90db	0.60767907
36	0x3f5c1d43	0.8598215
37	0x3eeebcc6	0.46628398
38	0x3f0b01a5	0.54299384
39	0xbce5017e	-0.027954813
40	0x3f0ebc62	0.557562
41	0x3f150d13	0.58223075
42	0x3f3bbfa4	0.73339295
43	0x3f3ab232	0.72928154
44	0x3c1b0383	0.0094612865
45	0xbcea8a36	-0.028630357
46	0xbd2a1ddf	-0.041532394
47	0x3ec3e430	0.3826003
48	0x3cdd9a5d	0.027051145
49	0xbcdac46e	-0.026704993
50	0xbd7b6ef3	-0.061385106
51	0x3cdf3e71	0.027251454
52	0xbd1b5141	-0.037919287
53	0x3efd61ed	0.49488774
54	0x3f72b00c	0.94799876
55	0x3ef72e4f	0.48277518
56	0x3f92821c	1.1445956
57	0x3f08bba2	0.53411305
58	0x3edcff3e	0.43163484
59	0x3ec79cd2	0.38986832
60	0x3f06abef	0.526061
61	0x3cdc1cdd	0.026869232
62	0x3b529883	0.003213436
63	0x3eef3bfb	0.4672545
64	0x3f2a25b3	0.66463774
65	0x3ef2f7bd	0.47454634
66	0x3f3f3059	0.7468315
67	0x3eed5d81	0.463604
68	0xbd35ea0c	-0.044412658
69	0xbd3c311d	-0.045945276
70	0x3d2c154d	0.0420125
71	0x3c4798c7	0.012182421
72	0xbd7beb1b	-0.06150351
73	0x3f18a5b3	0.59627837
74	0x3d3de08c	0.046356723
75	0x3f10255f	0.56307024
76	0x3edce36e	0.43142265
77	0x3d426407	0.047458675
78	0x3cf54c41	0.029943587
79	0x3b29c657	0.0025905573
80	0x3f135fd2	0.57568085
81	0x3c83b1a9	0.016075926
82	0x3cf53d18	0.029936358
83	0xba08949f	-0.00052101345
84	0x3ce8933b	0.028390517
85	0x3cf91128	0.030403689
86	0xbd3748a9	-0.04474703
87	0xbd952750	-0.07282889
88	0x3f11e99c	0.56997085
89	0x3caaef2d	0.020866001
90	0x3f27c3b2	0.6553298
91	0x3d003997	0.031304922
92	0xbceafe98	-0.028685853
93	0x3d26a644	0.040685907
94	0x3f5e820d	0.8691719
95	0xbd4a1189	-0.04933313
96	0x3c23e0e5	0.0100023495
97	0x3c8ea0d9	0.017410683
98	0x3cb54dee	0.022131886
99	0x3f2e0c5f	0.67987627
100	0x3ed3068a	0.41215926
101	0x3f20f352	0.6287128
102	0xbcb6029c	-0.022218041
103	0x3cb5b0e5	0.022179076
104	0x3ed71caa	0.42014056
105	0xbc9800f6	-0.018555146
106	0x3f0eb975	0.55751735
107	0x3f352ca4	0.7077124
108	0xbc726316	-0.014794132
109	0x3f44ea72	0.76920235
110	0xbd5c3fd5	-0.053771812
111	0x3eef15dc	0.46696365
112	0x3f13d1b3	0.5774185
113	0x3f0fbb53	0.5614521
114	0x3f13d015	0.57739383
115	0x3f014817	0.50500625
116	0xbcf7b80d	-0.03023913
117	0x3f078c84	0.52948785
118	0x3d22e77d	0.039771546
119	0x3f21e4f6	0.6323999
120	0x3f8fa0e7	1.1220978
121	0xbd34fd4f	-0.044186886
122	0x3f321165	0.6955779
123	0xbba544e7	-0.005043614
124	0x3ca27b54	0.019834198
125	0x3f19aafa	0.60026515
126	0x3f231f13	0.6371929
127	0x3f2a2d31	0.66475207

net.6.weight f4 [1, 128]
0	0xbd8ba6ec	-0.06818947
1	0xbd7cae10	-0.061689436
2	0xbc1e1ccb	-0.0096504195
3	0x3d8a01fc	0.0673866
4	0x3d84f3a3	0.064917825
5	0xbd82916d	-0.06375394
6	0xbd8f2a69	-0.06990511
7	0xbd4e28ea	-0.050331987
8	0xbc24de92	-0.0100628305
9	0x3d503923	0.05083574
10	0x3d7f593b	0.062340956
11	0xbcdea071	-0.027176114
12	0xbd7a3f6d	-0.061095644
13	0x3d556f19	0.052107904
14	0x3d4e0832	0.050300784
15	0xbd321ed1	-0.04348642
16	0x3d5fc746	0.0546334
17	0x3d735edc	0.059416637
18	0x3d7261e7	0.0591754
19	0x3d804af6	0.06264298
20	0x3d6ce56e	0.05783599
21	0x3db40dcd	0.08791695
22	0x3d82bf5a	0.06384154
23	0xbd90c186	-0.07068162
24	0x3d9d63e0	0.07685065
25	0x3d7e9181	0.062150482
26	0x3b8187cd	0.0039529563
27	0x3cfcd752	0.030864391
28	0x3d4bf053	0.049789738
29	0x3d9cca72	0.07655801
30	0xbd0e4283	-0.0347314
31	0x3d9a7c6f	0.07543265
32	0xbd420bdc	-0.04737459
33	0x3d79168f	0.06081253
34	0x3d85ff9d	0.06542895
35	0x3d8125ee	0.06306063
36	0x3d91cc97	0.071191005
37	0x3d7792cd	0.060442735
38	0x3d9ee065	0.077576436
39	0xbcb51928	-0.022106722
40	0x3d7cef23	0.061751496
41	0x3d878979	0.06618018
42	0x3d67212c	0.05642812
43	0x3d932986	0.07185654
44	0xbd8316ad	-0.064008094
45	0xbd388602	-0.045049675
46	0xbcc61c29	-0.02418335
47	0x3d710bd4	0.05884917
48	0xbd69b6aa	-0.057058968
49	0xbccaa41f	-0.024736462
50	0x39489b54	0.0001913135
51	0xbc630abf	-0.013857543
52	0xbd504b1b	-0.050852876
53	0x3d88b0a9	0.0667432
54	0x3db04552	0.08606972
55	0x3d9ab1cf	0.075534455
56	0x3deef870	0.116684794
57	0x3d3ba163	0.045808207
58	0x3d6cf6a8	0.057852417
59	0x3d7af412	0.06126792
60	0x3d62839a	0.055301286
61	0xbcbeae0b	-0.02327635
62	0xbd065a84	-0.032801166
63	0x3d937b5e	0.07201265
64	0x3d976723	0.07392719
65	0x3d90c1ff	0.07068252
66	0x3d6ad1d5	0.057329018
67	0x3d708828	0.0587236
68	0xbd69c477	-0.05707213
69	0xbd86862c	-0.0656856
70	0xbdb90ad7	-0.09035271
71	0xbce5224f	-0.027970461
72	0xbd224a32	-0.03962154
73	0x3d42c491	0.04755074
74	0xbd5363a8	-0.05160871
75	0x3d8db8a3	0.06919982
76	0x3d7011bb	0.05861066
77	0xbe4900d4	-0.19629222
78	0xbd4a05de	-0.049322
79	0xbb436427	-0.0029814334
80	0x3d34024c	0.043947503
81	0xbccd9ff4	-0.025100686
82	0xbd1fca3d	-0.03901123
83	0x3b0de4ca	0.0021651261
84	0xbd26e8ce	-0.040749364
85	0x3be17aaf	0.00688108
86	0xbd8b6550	-0.06806433
87	0xbd3d2ce1	-0.046185378
88	0x3d68a428	0.056797177
89	0xbcbf8ac9	-0.023381608
90	0x3d7e96a4	0.06215538
91	0xbd7a47f0	-0.06110376
92	0xbcf13f4b	-0.029449126
93	0xbd7d4a86	-0.06183865
94	0x3d8e32c0	0.069432735
95	0xbd619645	-0.05507495
96	0xbc9ca5a5	-0.019121954
97	0xbd638a5e	-0.05555188
98	0xbd91de35	-0.07122461
99	0x3d8eca6c	0.06972203
100	0x3d5d466f	0.05402225
101	0x3d848477	0.06470578
102	0xbd508f93	-0.050918173
103	0xbd721576	-0.059102498
104	0x3d844605	0.06458668
105	0xbd8a2c46	-0.06746726
106	0x3db6854c	0.08912143
107	0x3d509768	0.050925642
108	0xbcdc4e24	-0.02689273
109	0x3d77ad0a	0.060467757
110	0xbd9b5ea9	-0.07586414
111	0x3d806009	0.06268317
112	0x3d3ae784	0.045630947
113	0x3db85d49	0.09002168
114	0x3d8fe355	0.07025782
115	0x3d5ca338	0.053866595
116	0xba03a629	-0.0005022013
117	0x3da6e606	0.08149342
118	0xbd959623	-0.07304027
119	0x3d6b63ef	0.05746835
120	0x3df5c7f7	0.12001031
121	0xbc94aa62	-0.018147651
122	0x3d58e124	0.052949086
123	0xbe4b0784	-0.19827086
124	0xbc47d7fa	-0.012197489
125	0x3d809e98	0.06280249
126	0x3d7185d7	0.05896553
127	0x3d6e787a	0.058220364
