src/best_ffn.pt (torch, 819693 bytes, 25 tensors)

net.0.weight f4 [512, 50]
000000 36 a9 18 3c 67 98 61 bd f6 29 06 3e b1 81 eb bc
       0.009317687 -0.055076983 0.13101944 -0.028748365
000010 ac 2d 65 bd df 80 af 3e 76 d4 ed 3e fb 3b 38 bd
       -0.05595176 0.34278008 0.46451157 -0.044979077
000020 da d3 44 3d a6 d4 18 3e 51 97 04 bf 96 bd 4d 3d
       0.0480536 0.14924869 -0.5179339 0.05022963
000030 eb bc 77 3e 83 70 2b 3e 37 c2 b3 bb 98 00 91 3e
       0.2419316 0.16742139 -0.0054857987 0.28320765
000040 3a 36 69 bd dd 9d 32 bf 44 fd fe bd ac 3a 71 be
       -0.05693648 -0.6977213 -0.1245065 -0.23557538
000050 bf 6b e6 3c 99 7a 9c 3d b4 9f 55 be 0f 6a 32 be
       0.02812755 0.07640571 -0.20861703 -0.1742327
000060 f3 72 a2 3e e6 9c 2e 3e 36 d9 b4 bd 8f d2 8a be
       0.31728324 0.1705204 -0.08830492 -0.27113768
000070 06 0c b2 3c 5b 37 ba bd 4b 2f 23 be 06 f6 0f 3f
       0.021734249 -0.090925895 -0.1593601 0.56234777
000080 05 16 50 be 50 b8 66 bd cd 22 e9 bc 49 2a 51 3e
       -0.203209 -0.056328118 -0.028458977 0.20426287
000090 c1 a8 02 be 06 ae 3a be c3 11 8e bd 9e 19 80 bd
       -0.12759687 -0.18230447 -0.069369815 -0.06254886
0000a0 58 37 99 bd bb c1 24 be e9 63 c7 3d 03 b6 92 3b
       -0.07481259 -0.16089527 0.09735853 0.004477264
0000b0 52 7b ca bd d8 87 8a be d7 de 24 3e 20 b8 96 bc
       -0.09886803 -0.27056766 0.16100632 -0.018398345
0000c0 a7 31 be bd c7 5d 43 3e 75 58 c1 bd 15 47 9f be
       -0.09286814 0.19078742 -0.094407 -0.3110892
0000d0 cc 5d 10 3f 57 67 4e 3e 41 94 74 3e 02 8b ce 3d
       0.5639312 0.20156609 0.2388468 0.100851074
0000e0 0c 86 20 be 20 4c f9 bc 90 0f 37 3e 5c da a8 bd
       -0.15676135 -0.030431807 0.1787703 -0.08244774
0000f0 a2 8d 90 bd 8c aa b8 bd 51 2f 0e 3e 7b 7b bd be
       -0.07058264 -0.09016904 0.13885237 -0.3700827
000100 5a 1d f4 bd 24 ba 66 3e a3 75 d7 3d 62 0a ee be
       -0.11919661 0.22531945 0.10520484 -0.46492296
000110 e5 4d 17 3e 56 ae 76 3e b5 5f c8 3d a9 5a 73 be
       0.14775808 0.24089941 0.0978388 -0.23765053
000120 e2 5e 2d 3e 8e b8 a7 3e a8 09 75 3e 3f 9c e8 3d
       0.16930726 0.32757992 0.23929465 0.113579266
000130 5a 9d 84 3d b6 86 1f bd e1 bc 4b be 8a 6e a9 3e
       0.06475325 -0.03894683 -0.1989627 0.33092147
000140 c3 3a 57 be 05 24 06 3f e4 97 10 be 61 8e 14 bd
       -0.2101851 0.5239871 -0.14120442 -0.036268596
000150 a0 b9 cd bd 63 50 8d 3e 83 eb 90 be b3 53 4e bd
       -0.10045171 0.27600393 -0.2830468 -0.05037279
000160 06 76 24 3e c0 f9 2c be e6 9d 3e bc 1b c1 47 3e
       0.16060647 -0.16892147 -0.011634326 0.19507258
000170 6d c7 61 be 3c 49 37 3e 52 2f 12 3e b8 bd d5 3d
       -0.22048731 0.1789903 0.14275864 0.104365766
000180 63 c9 50 3e 79 66 62 bc 45 a7 0d 3e 04 44 d6 be
       0.20389323 -0.013818377 0.1383334 -0.41848767
000190 8b d6 2e 3e 20 cf 62 3e 6e 39 3d 3e 4e 9c b3 3d
       0.17074029 0.22149324 0.18478939 0.08770047
0001a0 62 1a 1d bc 11 c7 73 3c 8e 54 97 bd 05 18 d9 3d
       -0.00958881 0.014879004 -0.073891744 0.106002845
0001b0 54 b0 8f 3d f7 26 e1 bc 35 6f 02 be 6e ca f0 bd
       0.07016054 -0.0274844 -0.12737735 -0.117573604
0001c0 2e 34 36 be 4d a6 c5 bd 8d bb f5 3d 64 e6 39 3e
       -0.17793342 -0.0965086 0.11998663 0.18154293
0001d0 99 d7 fb bc 1d a2 9c be 5a 6f 96 3d 40 40 90 bd
       -0.030742453 -0.30592433 0.073454574 -0.07043505
0001e0 2d fc 30 3d c0 14 b9 be 88 65 4e 3d 16 4b b8 3e
       0.043209244 -0.36148643 0.050389796 0.35994786
0001f0 58 62 cb bb 74 69 cd bc 33 1a 06 3e 10 44 94 bd
       -0.006206792 -0.025074698 0.13095932 -0.072395444
000200 79 dd d6 3e 97 fa a5 be ea c6 0c be 53 4b 72 3d
       0.41965845 -0.32417747 -0.13747755 0.059153866
000210 a6 b2 b2 bd a9 26 42 3e 8c 0a ff 3d 2a 97 a8 3c
       -0.08725481 0.1896006 0.124531835 0.020579893
000220 41 0f f7 bd 6f fc 3c be d0 0d 5b bd 71 8c 8d bc
       -0.12063456 -0.18455671 -0.05347997 -0.017278882
000230 b5 c4 f4 3d 7d 20 fb bc e7 34 92 3e 59 34 bc bb
       0.119515814 -0.03065514 0.28555986 -0.005743545
000240 bf 33 de bd a9 e9 b7 3d 21 d5 e7 3c 14 7a 25 be
       -0.108497135 0.08980114 0.02829987 -0.1615985
000250 4f 30 8a be 36 5d 0e 3e c9 cc 6b 3d c8 4a 28 bd
       -0.26989982 0.13902745 0.057568345 -0.041086942
000260 44 b2 fe bd 56 dc 1c bd d1 c5 b6 be b7 51 94 3e
       -0.12436345 -0.038296066 -0.35697797 0.28968593
000270 6c 5c b9 be bf c0 11 3f 52 6d c8 bd 9b 86 93 3c
       -0.36203325 0.5693473 -0.09786476 0.01800852
000280 3f 44 f6 3d a0 00 98 3e 10 ef 2e 3d d4 34 60 bd
       0.12024736 0.29687977 0.042708457 -0.05473788
000290 96 f2 96 3b d1 dc 89 3e b7 e8 50 3e ff 42 a7 3d
       0.004606555 0.26926282 0.20401274 0.08167075
0002a0 e2 69 20 3e 47 78 32 be 69 7a f1 be 64 d8 c0 be
       0.15665391 -0.17428695 -0.47163704 -0.37665093
0002b0 7f 0f 30 3e b6 a3 31 be 97 9d 64 be 86 94 b6 bd
       0.17193411 -0.17347607 -0.22325741 -0.08915047
0002c0 e7 8b 93 bd 8d c5 4f 3d 40 84 98 bb 08 8d 46 bb
       -0.07204419 0.05072551 -0.0046544373 -0.0030296464
0002d0 aa a4 ae bd fd 89 cf be b8 cd 81 bd 45 fa af 3e
       -0.08527501 -0.40534964 -0.06338066 0.34370628
0002e0 d5 da 04 3d 8b 68 c0 bd 0e 2e 13 3f 49 3d 59 3e
       0.032435257 -0.0939494 0.5749215 0.21214785
0002f0 ad 1d e9 bd aa 08 ca bd 62 cd 7d be 64 84 ac 3e
       -0.11382613 -0.09864934 -0.24785379 0.33694756
000300 bb 74 6d 3e 3d 68 9d 3d 8b b1 d7 be 34 d0 a5 3d
       0.2318906 0.076858975 -0.42127642 0.08096352
000310 28 42 a4 bc d1 e4 0e 3e 0b 55 6e be 3b 60 f4 bd
       -0.020051077 0.13954474 -0.23274629 -0.11932417
000320 97 23 66 3d da 93 8f 3d f7 50 ca bd 1f 86 e3 3c
       0.056186285 0.07010622 -0.09878724 0.027773915
000330 d5 2e 66 3d b8 ba 15 3d 07 42 e8 3d 74 ee 09 3e
       0.056197006 0.036555022 0.11340719 0.13469869
000340 df 68 c3 bb a7 75 0a 3c e6 f9 df 3d 53 80 77 3e
       -0.0059634293 0.008450902 0.10936336 0.24170046
000350 bd af 86 3e 9c b2 c9 be d8 3f 77 bd c4 dd 15 3e
       0.26305953 -0.3939408 -0.06036362 0.14635378
000360 80 f8 91 3d e2 2f 27 be 37 c2 a0 bd aa 1b dd 3e
       0.07127476 -0.1632686 -0.078495435 0.43185169
000370 a6 c0 5b 3d 36 78 8f 3d 3b 04 a1 3e 52 dd d2 3d
       0.05365052 0.0700535 0.3144854 0.1029612
000380 dd 15 c7 3d 51 09 96 be 4f 4a 7b 3d 7a 21 0b 3e
       0.09720967 -0.29303983 0.061350163 0.13586989
000390 11 e5 cd 3d 72 9a 9a bd e6 91 9c 3e 17 69 12 be
       0.100534566 -0.07548989 0.30580062 -0.14297901
0003a0 9d ea 56 3e 62 9b b7 be 9b 65 d0 3e 9a 20 bc 3d
       0.20987935 -0.35860735 0.4070252 0.09185906
0003b0 fa 69 7f bd 7c 2a ad bd 92 77 8a be 24 fa 19 be
       -0.062356927 -0.08455369 -0.2704435 -0.15036827
0003c0 e2 8f 02 3e 6a 69 b5 3d dd 0d b1 3d ab 32 1b be
       0.127502 0.08857997 0.08645222 -0.15156047
0003d0 1c ea c4 3e 2e 96 9d 3d 03 2a cd 3d c3 43 e3 be
       0.3845986 0.0769466 0.10017779 -0.44387636
0003e0 9a e5 cc 3e 8e 82 ff 3b 36 ad 04 be f8 36 06 be
       0.40018922 0.0077975458 -0.129567 -0.13106906
0003f0 ab af e4 bc d4 b4 6e bd 00 d4 99 3c f9 53 eb bd
       -0.027915796 -0.05827792 0.018777847 -0.11490626

net.0.bias f4 [512]
000000 ce d4 46 3a 17 e7 0a 39 da 5b 1a ba 77 3a 1c ba
       0.0007584811 0.00013246793 -0.0005888321 -0.00059596397
000010 02 46 3b b9 10 bf cc b8 51 f2 ba b9 25 50 37 3a
       -0.0001785979 -9.763066e-05 -0.00035657224 0.00069928385
000020 6e b2 b5 b9 e6 f5 33 3a a6 b6 eb ba e3 98 fe 39
       -0.0003465595 0.000686495 -0.0017983511 0.00048560565
000030 7d c2 ad b8 b7 a4 2a 39 0d 6e b9 ba 0b 68 cc 3a
       -8.285509e-05 0.00016273824 -0.0014147178 0.0015594972
000040 93 db 4a 38 bd 54 49 ba 58 40 c1 b7 8a 30 b6 b8
       4.8365047e-05 -0.00076801685 -2.3037355e-05 -8.6874774e-05
000050 cf bd 89 b9 ee 4e 26 39 8b 5b ac b8 b8 db f4 b9
       -0.00026272095 0.00015860397 -8.21865e-05 -0.0004670301
000060 90 3a bb 39 0e b7 03 b9 c6 87 83 38 f2 73 a2 3a
       0.00035711052 -0.00012561327 6.2718565e-05 0.0012394174
000070 81 fd eb ba 1b 5b ef b9 79 01 08 3a 1b e9 58 b7
       -0.0018004627 -0.0004565351 0.0005188208 -1.2928877e-05
000080 63 8e 4c b9 7d c8 1b ba bc 22 1a 3a 60 31 fd 39
       -0.00019507999 -0.0005942656 0.00058798096 0.00048292708
000090 ef f7 06 ba 45 0f 42 b9 22 73 bf b9 3e 40 db b8
       -0.00051486393 -0.0001850697 -0.0003651614 -0.000104547
0000a0 1e e1 05 b9 91 d8 3f 3a 6f 91 1f b9 6c 6f e7 b9
       -0.00012767731 0.00073183427 -0.000152176 -0.0004414277
0000b0 34 41 3f ba 13 4e cc b9 8d a2 03 ba 6f d8 88 ba
       -0.0007295788 -0.00038968082 -0.00050214754 -0.0010440479
0000c0 e9 7f 9f b9 b0 d5 1b 3a 4e 64 23 3a 0d cc 9e 39
       -0.00030422144 0.00059446227 0.0006232903 0.00030288138
0000d0 c1 d5 2b b9 b5 2d 2a ba b5 8c 0b 3a 06 6b ea ba
       -0.0001638746 -0.0006491796 0.0005323396 -0.0017884679
0000e0 e5 e0 f0 b8 1c 1b cd 38 6f c6 51 ba b3 f3 cf 39
       -0.00011485982 9.780211e-05 -0.0008002286 0.00039663687
0000f0 82 54 0f ba cb fc ca 39 e6 1c 39 3a 45 0e 0c 3a
       -0.000546761 0.00038716788 0.0007061496 0.00053427025
000100 2c cf 9f 39 64 dc 04 3a a0 9b 93 39 ae b0 3c ba
       0.00030481198 0.0005068241 0.00028153975 -0.0007197958
000110 b0 8c ef b9 f9 be 85 b8 8d 6d 50 b9 ee 55 d6 39
       -0.00045690453 -6.3775056e-05 -0.00019877237 0.00040881283
000120 f5 c4 69 38 09 94 96 39 05 f8 ca b9 ca e9 b6 39
       5.573496e-05 0.00028720524 -0.0003871323 0.00034887932
000130 f4 ba 5a 39 3c 8c 33 37 02 dc 8a b9 3a bf 8e 38
       0.00020859746 1.0701882e-05 -0.0002648533 6.8067064e-05
000140 47 e2 d2 39 3c 60 d4 b9 c3 12 50 ba b9 fc 13 ba
       0.0004022291 -0.0004050749 -0.0007937366 -0.00056452636
000150 e9 63 12 ba 93 b1 c6 b8 80 4e 53 ba cc 55 cd 3a
       -0.0005584346 -9.4744515e-05 -0.00080607086 0.0015665828
000160 10 43 fc b9 07 fd d4 b9 c8 68 82 39 79 f8 6f 37
       -0.0004811515 -0.0004062431 0.000248736 1.4303362e-05
000170 72 d2 6e 39 0b 23 06 3a dc 1c be 39 a0 5d 15 39
       0.00022775846 0.0005116916 0.00036261126 0.00014244625
000180 94 c2 b2 b9 4c d7 86 b9 4f 66 21 b9 1e c7 d6 39
       -0.00034095778 -0.0002571888 -0.0001539227 0.00040965615
000190 95 6d 23 b9 0c 23 54 b8 ba 7f cc 38 ea c1 33 b9
       -0.00015585714 -5.057738e-05 9.751269e-05 -0.00017143009
0001a0 b6 7e 2a 36 5b a1 d2 39 7d 5c 06 ba 47 61 77 3a
       2.540573e-06 0.0004017454 -0.0005125476 0.00094367977
0001b0 f7 40 5d 39 d5 59 e4 38 a0 dd 04 3a bf 35 b6 38
       0.00021100404 0.0001088862 0.0005068425 8.688447e-05
0001c0 08 8b 63 39 23 04 b4 39 58 94 e4 39 2f 54 71 39
       0.000217002 0.00034335357 0.00043598074 0.00023014912
0001d0 32 9a 40 b9 c2 56 03 ba 73 8c 20 ba 96 5f fe b9
       -0.00018367989 -0.00050101813 -0.0006124444 -0.00048517872
0001e0 59 ae e0 ba 92 ab 1f 3a e7 9d 3e b9 52 70 14 38
       -0.0017141803 0.00060909346 -0.00018178635 3.5390556e-05
0001f0 ac 53 05 b9 5c d6 51 ba 5d 21 10 ba ff 96 09 ba
       -0.00012715039 -0.00080046593 -0.00054981356 -0.00052486354
000200 da f0 93 b9 35 46 50 ba 50 74 86 3a 1f e8 00 ba
       -0.00028217473 -0.0007945032 0.0010258052 -0.0004917401
000210 3e c6 36 39 9a a6 4d 3a ec db 63 b9 3a 5f 3e b9
       0.00017430724 0.0007844955 -0.00021730334 -0.00018155287
000220 4d a8 9f b9 96 64 89 b9 e6 71 bf b9 3b 64 ae 3a
       -0.00030452237 -0.0002620562 -0.0003651522 0.0013305017
000230 ce 0a e8 39 63 8d 28 ba 65 50 c9 38 15 7c 48 ba
       0.00044258538 -0.00064297597 9.5994015e-05 -0.0007647884
000240 bb 64 2f 3a 2e 22 2e 37 6e 2e e1 b8 5b 92 cb 3a
       0.000669073 1.0379166e-05 -0.00010737484 0.0015531288
000250 ec 48 5b b8 47 0d 2a ba 97 34 df b9 1d 3c 1c b8
       -5.2281583e-05 -0.0006486964 -0.00042573057 -3.7249283e-05
000260 fa 42 63 39 d2 22 8b b9 50 25 73 39 d6 86 8c b9
       0.00021673358 -0.0002653809 0.00023188186 -0.00026803341
000270 9f a9 68 3a cd a5 53 36 70 dc 8d b9 b1 fb 7d ba
       0.0008875373 3.153796e-06 -0.00027057854 -0.0009688689
000280 a2 0c e0 b8 79 03 46 3a 72 da 13 b9 df 17 14 39
       -0.000106835054 0.0007553618 -0.0001410039 0.00014123273
000290 f7 4e 99 ba a9 c6 23 3a 1a 51 1b b9 ca 7f 26 39
       -0.0011696507 0.0006247559 -0.00014812165 0.00015878599
0002a0 1d d3 d0 39 9b 9e 27 3a 50 ad ad ba 7d 9e b5 ba
       0.00039830143 0.00063941785 -0.0013250504 -0.0013856437
0002b0 7f 8a ef 38 73 70 9e b9 85 32 3f 3a 97 8e 7b 3a
       0.00011422205 -0.0003021989 0.00072936 0.00095961377
0002c0 87 48 00 3a 63 73 b1 3a 02 f4 13 ba 67 d7 65 ba
       0.000489362 0.0013538416 -0.0005643965 -0.0008767754
0002d0 e3 2a 95 ba dd 21 2c 3a 78 96 2b ba 26 ba 89 37
       -0.0011380579 0.00065663253 -0.0006545554 1.6418355e-05
0002e0 c4 78 d9 b5 98 1f 6b 3a ef 20 aa b9 bb 5f 7e b9
       -1.6202907e-06 0.00089692464 -0.00032449464 -0.0002425899
0002f0 f7 53 a9 ba 6e 62 b3 38 c9 88 60 39 d2 87 e9 b9
       -0.00129187 8.553719e-05 0.00021413261 -0.00044542417
000300 68 d0 ff 39 eb c8 bd 39 b8 50 7c 38 db 83 52 b6
       0.00048792665 0.00036198585 6.0156657e-05 -3.1369188e-06
000310 74 73 1c ba d7 b5 f3 36 a8 ec fd 38 90 ee fb b8
       -0.00059681316 7.2631333e-06 0.00012108061 -0.000120130484
000320 11 c5 0f ba ee 69 00 3a 8c 77 4a 39 92 72 d6 39
       -0.0005484382 0.0004898597 0.00019308756 0.00040902622
000330 31 87 bb ba ee 1c 01 ba 19 a5 a7 b9 b0 32 34 b9
       -0.0014307258 -0.00049252703 -0.0003197573 -0.0001718502
000340 c8 fe db 38 85 fb c3 38 a7 18 99 39 9a a7 03 ba
       0.000104901905 9.345174e-05 0.00029200802 -0.0005022228
000350 13 25 10 ba 04 f2 0f 38 92 54 c0 38 19 9d 8e 38
       -0.00054986886 3.431925e-05 9.171026e-05 6.8003494e-05
000360 03 ed 21 b9 9f 90 66 b9 84 16 a9 ba f8 f3 15 3b
       -0.0001544245 -0.00021988385 -0.0012900387 0.0022881012
000370 61 c8 9f 3a 19 c0 37 39 3a 46 9c 38 bf 09 24 3a
       0.0012190455 0.00017523802 7.4517404e-05 0.0006257556
000380 b1 df a7 b8 a1 30 02 ba bb b4 73 3a a0 9b f4 b9
       -8.004846e-05 -0.0004966353 0.00092966453 -0.00046655256
000390 63 a3 c2 38 fb 50 c8 39 1e ca f5 38 fc 29 f3 b9
       9.281074e-05 0.00038207308 0.000117201576 -0.00046379853
0003a0 47 98 19 b9 f1 f0 50 3a 1c c5 13 b8 71 01 df 39
       -0.00014647945 0.00079704734 -3.5231104e-05 0.00042534948
0003b0 ec d6 9a 39 d3 53 ce b7 70 77 84 b9 10 54 63 b7
       0.00029533298 -2.4596147e-05 -0.0002526599 -1.3549827e-05
0003c0 08 ac 97 39 4e 6b 30 ba ae 08 35 b9 51 b8 ba 38
       0.00028929138 -0.0006729857 -0.00017264739 8.903503e-05
0003d0 37 1c b8 38 92 64 1a 3a 48 10 0c b9 c4 03 00 3a
       8.779059e-05 0.000588962 -0.00013357506 0.00048833736
0003e0 07 1c 36 3a fc 53 63 3a 4c 05 6e 3a 90 89 cb b9
       0.00069469254 0.00086718774 0.0009079769 -0.0003882167
0003f0 a2 4c f8 b8 68 fc 10 3a 1f e0 b7 b9 63 44 85 39
       -0.000118398355 0.00055307755 -0.00035071463 0.0002541869

net.1.weight f4 [512]
000000 fb 3d 6a 3f a3 cc 85 3f 88 8e 6f 3f c2 6e 7e 3f
       0.91500825 1.0453075 0.9357686 0.99387753
000010 39 25 82 3f aa a4 74 3f 66 a3 70 3f e5 ca 75 3f
       1.016761 0.9556376 0.93999326 0.9601272
000020 bc ac 84 3f 47 ab 70 3f ad 3a 78 3f de a4 8c 3f
       1.0365214 0.9401135 0.9696453 1.0987813
000030 88 fd 7d 3f 02 68 6e 3f d3 0b 80 3f 17 07 88 3f
       0.99214983 0.93127453 1.0003608 1.0627164
000040 99 57 79 3f 34 e1 71 3f 70 f1 6d 3f 68 4c 69 3f
       0.9739929 0.9448426 0.9294653 0.9113221
000050 2d 4f 60 3f e9 c6 7e 3f 98 c6 4f 3f 0b 6e 77 3f
       0.8762081 0.9952226 0.81162405 0.9665229
000060 79 73 5e 3f b1 87 6f 3f e2 18 86 3f da c9 78 3f
       0.8689495 0.93566424 1.0476344 0.97183
000070 f0 10 75 3f 3a eb 7a 3f eb ef 84 3f 84 7b 6b 3f
       0.9572897 0.9801518 1.0385717 0.91985345
000080 b9 af 66 3f 08 13 8a 3f d7 43 6b 3f 09 57 61 3f
       0.9011188 1.0787058 0.9190039 0.8802343
000090 3e 19 67 3f ad 5b 78 3f 4d cc 63 3f 46 1b 71 3f
       0.9027289 0.97014886 0.88983613 0.9418224
0000a0 ac 9f 71 3f e4 52 69 3f 92 29 72 3f cb 8a 5d 3f
       0.94384265 0.91142106 0.9459468 0.86539906
0000b0 58 ba 81 3f fc 03 82 3f a1 df 88 3f cb 7e 70 3f
       1.0134993 1.0157466 1.0693246 0.9394347
0000c0 f8 37 85 3f 36 1d 82 3f 63 6d 86 3f 0d bf 62 3f
       1.0407705 1.0165164 1.0502132 0.8857277
0000d0 d1 f6 7d 3f 90 44 83 3f f2 33 7f 3f 62 92 85 3f
       0.99204737 1.0255299 0.9968864 1.0435297
0000e0 03 43 68 3f d8 f8 66 3f 71 22 87 3f c4 90 78 3f
       0.9072725 0.90223455 1.0557386 0.97095895
0000f0 9e 95 84 3f fc 14 6b 3f 6d b1 7b 3f eb 60 7f 3f
       1.035816 0.91828895 0.98317605 0.9975726
000100 db e3 76 3f 2c 4c 80 3f b0 be 79 3f c8 9a 82 3f
       0.9644143 1.0023246 0.9755659 1.0203485
000110 d0 19 73 3f 7a 71 73 3f 2a 6a 6f 3f e2 34 83 3f
       0.9496126 0.95095026 0.9352137 1.0250514
000120 19 37 76 3f 30 b7 81 3f 2c 6e 6d 3f 5a 58 7f 3f
       0.9617782 1.0134029 0.92746234 0.9974419
000130 85 97 78 3f 05 8d 6f 3f 20 4a 81 3f c7 0b 6b 3f
       0.971062 0.93574554 1.0100746 0.91814846
000140 d0 be 6a 3f 89 db 86 3f e5 7f 81 3f 51 d2 81 3f
       0.91697407 1.0535747 1.0117155 1.0142308
000150 b2 de 73 3f 9a cc 6b 3f 2b 0f 75 3f 82 e5 71 3f
       0.9526168 0.9210907 0.9572627 0.94490826
000160 4d 1a 84 3f 94 8c 77 3f 78 79 74 3f c1 74 87 3f
       1.0320526 0.9669888 0.95497847 1.0582505
000170 94 02 5d 3f a9 a9 8c 3f 70 23 84 3f 4c 9a 72 3f
       0.8633206 1.0989276 1.0323315 0.9476669
000180 af 4a 63 3f 24 1c 80 3f 73 e9 72 3f 3b 26 5a 3f
       0.88785833 1.0008588 0.94887465 0.85214585
000190 bf 04 58 3f 7d 3c 63 3f 54 49 80 3f 66 86 70 3f
       0.8438224 0.8876417 1.0022378 0.93955076
0001a0 76 31 86 3f 51 76 5d 3f 1c 75 83 3f e6 df 6b 3f
       1.0483844 0.8650866 1.0270114 0.92138517
0001b0 60 76 67 3f 47 49 7d 3f e5 b5 78 3f 05 37 76 3f
       0.90415 0.9893994 0.9715255 0.96177703
0001c0 e4 8f 90 3f 5f fc 62 3f 55 e8 80 3f 8b aa 6e 3f
       1.1293912 0.8866634 1.0070902 0.9322898
0001d0 75 54 6a 3f 08 ae 76 3f 3a a9 78 3f f0 3b 74 3f
       0.9153512 0.963593 0.9713322 0.9540396
0001e0 8c ac 71 3f a9 ed 73 3f 54 3a 6b 3f 24 c6 5f 3f
       0.9440391 0.95284516 0.91885877 0.87411714
0001f0 c4 a9 7c 3f fa 3e 70 3f 6d ef 85 3f ae e1 6a 3f
       0.9869654 0.93846095 1.0463692 0.9175061
000200 1c f0 81 3f 71 2f 75 3f 4c 83 82 3f 35 cc 83 3f
       1.01514 0.95775515 1.0196319 1.0296694
000210 ef 63 66 3f 35 ec 86 3f b0 61 6c 3f ab fc 73 3f
       0.89996237 1.0540835 0.9233656 0.95307416
000220 92 d6 61 3f e9 ee 7c 3f a4 c3 7a 3f 99 e5 73 3f
       0.88218033 0.9880205 0.97954774 0.95272213
000230 fc 7e 68 3f ed f1 83 3f 2f 34 5f 3f 4b be 82 3f
       0.9081876 1.0308205 0.87189 1.0214323
000240 ea cb 6e 3f 46 d1 75 3f fa 79 7c 3f 3f 6c 88 3f
       0.932799 0.9602245 0.9862362 1.0658034
000250 f2 b3 74 3f 23 b5 88 3f 7b 3b 62 3f 74 a2 72 3f
       0.95587075 1.0680279 0.8837201 0.94779134
000260 56 0a 7e 3f f4 7e 6b 3f 34 c2 76 3f ec e6 83 3f
       0.9923452 0.9199059 0.9639008 1.0304847
000270 ae 71 7d 3f 0d 5c 9b 3f 47 a3 72 3f 98 23 87 3f
       0.99001586 1.2137467 0.9478039 1.0557737
000280 39 62 66 3f 6a f7 7c 3f b0 4c 82 3f 11 32 66 3f
       0.89993626 0.98815024 1.0179653 0.89920145
000290 cf 7d 67 3f 4f f4 68 3f 94 f2 82 3f 8c 4d 83 3f
       0.90426344 0.90997785 1.0230279 1.025804
0002a0 20 c3 79 3f 36 3e 73 3f 9f cb 8b 3f 76 5d 72 3f
       0.9756336 0.950168 1.0921515 0.9467386
0002b0 a5 30 6c 3f 76 29 7d 3f 60 59 78 3f dc eb 75 3f
       0.92261726 0.9889139 0.97011375 0.9606302
0002c0 22 91 70 3f 93 ed 80 3f 22 36 76 3f 4f 62 8b 3f
       0.93971455 1.0072502 0.9617635 1.0889376
0002d0 a7 ed 84 3f c8 56 8a 3f 0f 98 6e 3f a2 4e 76 3f
       1.0385026 1.0807734 0.93200773 0.96213734
0002e0 e1 53 82 3f 4a a9 77 3f 51 fa 6c 3f 75 d7 6e 3f
       1.0181848 0.9674269 0.9256945 0.9329751
0002f0 2e 1b 76 3f 69 82 83 3f 2f bc 70 3f 7c 56 81 3f
       0.9613522 1.0274173 0.94037145 1.0104518
000300 db 78 77 3f 2b 52 81 3f 6a ba 5f 3f d5 26 80 3f
       0.96668786 1.0103201 0.8739382 1.001185
000310 d2 61 74 3f 65 32 5f 3f a9 6e 61 3f 22 56 7e 3f
       0.9546176 0.8718627 0.8805948 0.9935018
000320 0c 4b 70 3f 49 1f 83 3f 1b 7f 7e 3f b5 a7 81 3f
       0.9386451 1.0243922 0.994127 1.0129305
000330 46 ed 79 3f 1b be 87 3f 1e 05 5b 3f fd f1 64 3f
       0.97627676 1.060489 0.85554683 0.89431745
000340 41 b0 57 3f ef 25 6e 3f 60 bd 81 3f 7e d0 68 3f
       0.8425332 0.9302663 1.0135918 0.90943134
000350 b1 4f 81 3f 1a b8 5d 3f 1f 73 83 3f 80 5a 6d 3f
       1.0102445 0.8660904 1.0269507 0.9271622
000360 6f d9 81 3f 3e 53 65 3f af 20 7c 3f 12 82 81 3f
       1.014448 0.8958014 0.9848737 1.0117819
000370 25 d4 87 3f f1 b1 87 3f fa 2a 7c 3f 96 85 66 3f
       1.0611616 1.0601178 0.9850308 0.90047586
000380 d8 c9 7f 3f 7c 65 63 3f b6 19 79 3f ba df 81 3f
       0.99917364 0.8882673 0.97304857 1.0146401
000390 ee 9c 7d 3f 67 9d 72 3f 08 3d 6e 3f cb 24 83 3f
       0.9906758 0.94771427 0.93061876 1.0245603
0003a0 fe e4 65 3f c4 1c 79 3f 80 7f 82 3f 1a 6b 81 3f
       0.8980254 0.9730952 1.019516 1.011081
0003b0 f2 42 81 3f 7e 8c 6e 3f fd 1e 84 3f 4a 7f 81 3f
       1.0098555 0.93183124 1.0321957 1.011697
0003c0 91 ca 7a 3f 63 4e 7a 3f a5 22 4b 3f a4 7a 84 3f
       0.9796534 0.9777586 0.7934974 1.0349927
0003d0 40 56 7e 3f 73 3b 81 3f 03 af 86 3f 7b ac 75 3f
       0.9935036 1.0096267 1.0522159 0.9596631
0003e0 fa 80 6a 3f b8 b9 63 3f 4b 9e 80 3f b3 8c 87 3f
       0.9160305 0.8895526 1.0048307 1.0589813
0003f0 3f 68 78 3f 98 e5 74 3f 49 f9 6f 3f 8e ae 64 3f
       0.97034067 0.9566283 0.93739754 0.8932885

net.1.bias f4 [512]
000000 d0 00 82 be 3a fd 8e be ee 21 29 be a1 98 fc bd
       -0.25391245 -0.27927572 -0.1651685 -0.12333799
000010 82 6f cf bd fd a2 fa be 59 ad 5f be 7e d1 f0 bd
       -0.1012869 -0.48952475 -0.2184347 -0.117587075
000020 d1 d3 b8 bd 28 de d2 be 3e ce 4e bf fb 1b df bd
       -0.09024776 -0.41185117 -0.8078345 -0.10894009
000030 85 8e 9e be 12 ba 31 be 56 d3 8a be ce 7b 12 bc
       -0.3096811 -0.17356136 -0.27114362 -0.00894065
000040 87 3a d2 bd a6 74 7c be e6 92 e4 be cd 80 4b be
       -0.102650695 -0.24653873 -0.44643325 -0.19873352
000050 dc 1b af be 81 ae 33 be 57 ac 87 be ec 6e ef be
       -0.34200943 -0.17547037 -0.26498672 -0.46764314
000060 58 86 67 be a4 c1 9d bd d5 32 55 be e8 de f7 be
       -0.22609842 -0.0770295 -0.20820172 -0.4841225
000070 4b 9b c3 be 94 79 85 be f6 f0 93 be 00 86 cb bd
       -0.38204417 -0.2606932 -0.28894776 -0.09937668
000080 0c 87 96 be 5d f1 92 bd 7c 88 47 be 2d 67 78 be
       -0.29399908 -0.07174943 -0.19485658 -0.24258108
000090 f1 35 52 be f4 c5 64 be 84 a1 48 be 79 88 56 be
       -0.2052839 -0.22341138 -0.19592863 -0.20950498
0000a0 83 b2 1a 3c 05 a5 9a be c4 e2 bc b8 a0 ed 5b be
       0.009441975 -0.30204025 -9.006777e-05 -0.21477365
0000b0 00 ff 52 be ae af 3a be bf 22 4a be f8 5a 0c bf
       -0.20605087 -0.18231079 -0.19739817 -0.5482631
0000c0 8d 2e dc bd fc 01 77 be 49 34 04 be 54 d5 9c be
       -0.10751066 -0.2412185 -0.1291057 -0.30631506
0000d0 a5 a5 46 be f2 92 26 be 73 96 85 be 91 2f d5 bd
       -0.19399126 -0.16266993 -0.26091346 -0.10409463
0000e0 60 04 0e bf 0a 98 df be 7e ec 96 be 1e 46 5f be
       -0.55475426 -0.43670684 -0.29477304 -0.21804091
0000f0 69 9c 60 be e6 0c 85 be 95 e6 11 bf da 9e df bc
       -0.21934666 -0.25986403 -0.56992465 -0.027297426
000100 ab 57 90 be 9c 9a 6e be 3a 3b 50 be 51 db 72 bc
       -0.28191885 -0.23301166 -0.20335093 -0.014822797
000110 ee 73 b3 be 18 95 f8 be 1b 84 67 be 07 75 1a be
       -0.35049385 -0.4855125 -0.22608988 -0.15083705
000120 8e 81 a1 be a7 89 ba bd bf d3 a1 be cd fa 8a bd
       -0.31544155 -0.09108286 -0.31606862 -0.06786118
000130 93 ef b3 be 1f fd 80 be 15 6f 8e bd b3 49 28 be
       -0.35143718 -0.25193116 -0.06954781 -0.16434364
000140 26 0c 04 bf a1 42 db bd f3 cd 87 be 09 cd 12 bb
       -0.5158104 -0.10706068 -0.26524314 -0.0022400043
000150 92 9c be be 6f 54 f8 bd d8 08 59 be 48 83 2c bf
       -0.3722883 -0.121254794 -0.2119478 -0.6738782
000160 75 bd b5 be 79 7b 89 be 12 3a c6 3c d2 d0 1e be
       -0.35496107 -0.26852015 0.024197612 -0.15509346
000170 17 7a f0 bd 3d 71 72 bc 39 92 41 be 41 99 0e be
       -0.11742037 -0.014797506 -0.18903436 -0.13925649
000180 ee a9 12 be 2c 11 33 be b2 d6 02 be 24 3a 87 be
       -0.14322636 -0.1748702 -0.12777212 -0.26411545
000190 70 dc 7d be c2 18 17 be eb 48 76 be a8 e7 63 bd
       -0.24791121 -0.14755538 -0.24051253 -0.055640846
0001a0 fb de cf bd 46 c1 4c be 2c d3 52 bd 60 29 3c bf
       -0.10149952 -0.19995603 -0.05147092 -0.73500633
0001b0 7a 8e 21 be 06 79 b2 be b8 d2 b1 be 90 92 01 bd
       -0.15777007 -0.3485796 -0.34731078 -0.031633914
0001c0 37 79 96 bd 85 87 bc be 46 0a f7 be a4 51 9f be
       -0.07347339 -0.36822143 -0.48250026 -0.31116974
0001d0 68 ec 1a bf 7a c1 3d be de 70 49 bd ba f0 0d bf
       -0.6051698 -0.18530837 -0.049179904 -0.55445445
0001e0 3e e4 b3 be 3e 80 58 be e5 d8 66 be 89 5c 34 be
       -0.35135072 -0.2114267 -0.22543676 -0.17613424
0001f0 7a 92 5f be 6f 1c a9 bd 92 c2 2a be b6 41 56 be
       -0.2183322 -0.082573764 -0.16675785 -0.20923504
000200 83 eb e1 be 44 07 b9 be cc 04 2d 3c da b8 1d be
       -0.44124994 -0.36138356 0.010560226 -0.15402547
000210 7f 04 2f be 37 05 3a bd ef d0 ab be 93 bd 6d be
       -0.17091559 -0.04541513 -0.3355784 -0.23216848
000220 2c e0 81 be 16 92 7b be 06 c5 c1 3c 75 a7 02 bf
       -0.25366342 -0.24567446 0.023653518 -0.5103677
000230 4b be 0d be a4 4d bb bd 91 e6 ac be ba 9a 95 bd
       -0.13842122 -0.09145668 -0.33769658 -0.073049024
000240 c1 ef 03 bf 42 a4 ac be 32 8b bd be a0 a2 31 be
       -0.5153771 -0.3371907 -0.3702026 -0.17347193
000250 c1 f1 73 be 61 b1 b4 bd 51 0b 48 be cf 5c 35 3d
       -0.2382269 -0.08822895 -0.19535567 0.044277962
000260 35 09 5d be b5 8e 8b be 2a b1 cf be 43 86 af bd
       -0.21585543 -0.27257314 -0.40564853 -0.0857053
000270 5b 1b 81 be a9 4f e1 bd 83 7a 33 bd b1 94 0b bd
       -0.25216183 -0.11001522 -0.04381801 -0.03407735
000280 7d 15 b3 be 93 ea c7 be 2b e3 2f be f6 d2 bb bd
       -0.34977332 -0.39046153 -0.17176501 -0.09171097
000290 fd c7 1d bf 8b 18 0d be 00 6e 0f be 8b fe bb bd
       -0.6163328 -0.13778894 -0.14006805 -0.091794096
0002a0 ff f9 72 bd 51 37 17 be e4 d8 5e be 07 97 5e be
       -0.059320446 -0.14767195 -0.21762425 -0.217373
0002b0 f7 78 b4 be 24 51 e6 bd d4 72 ce bc 07 7a 3d bf
       -0.3524854 -0.11245945 -0.025201239 -0.74014324
0002c0 83 fa 85 be 44 10 eb be 76 77 2d be 63 bb 3f 3d
       -0.26167688 -0.45910847 -0.16940102 0.046809565
0002d0 d6 de f8 bc 3b 4a 74 be a5 98 c2 bd c5 ba f2 ba
       -0.030379694 -0.23856442 -0.09501771 -0.0018518796
0002e0 9e 50 23 be 22 0c 4e be f7 74 ad bd 7f e6 1d be
       -0.15948722 -0.20121816 -0.08469575 -0.15419959
0002f0 a4 a1 e6 be 37 c4 22 be 92 f3 8c be 08 be 44 be
       -0.45045197 -0.15895163 -0.2752958 -0.19213116
000300 fb 9c a7 bd bc a1 30 be 55 d9 7d bd d8 94 3a be
       -0.081842385 -0.17249197 -0.061974842 -0.18220842
000310 37 75 6d be 3b ad 45 be 2f d5 f5 be b0 54 55 be
       -0.23189245 -0.19304363 -0.4801421 -0.20833087
000320 c8 43 e5 bd 43 03 10 be 59 a6 af be a8 12 05 be
       -0.11194569 -0.14063744 -0.343066 -0.12995398
000330 a9 d8 ba be 79 37 e7 bd b3 87 64 be 80 af a0 be
       -0.36493424 -0.112898774 -0.2231739 -0.31383896
000340 d9 ca 06 be bd ad 82 bc c3 90 6e bb 68 f0 42 be
       -0.13163318 -0.015951985 -0.0036402203 -0.1903702
000350 95 9b 94 be 21 16 4d be ab d1 35 be 59 4f 2d be
       -0.2902495 -0.20027973 -0.17755763 -0.169248
000360 7b 8d ab be cb e4 a7 be ab 5e bf be 4e 04 ea be
       -0.3350638 -0.32791743 -0.37376913 -0.4570641
000370 36 90 a5 be 0a cc ff bd 4e 6d 4b be 3d 1e 77 bd
       -0.32336587 -0.12490089 -0.19865915 -0.06033157
000380 f4 b1 a6 be 57 1c 0d be 2c 4c 95 be 9f dc 33 bc
       -0.32557642 -0.13780342 -0.29159677 -0.010977893
000390 59 fa 54 bd d4 5e fc bd 33 86 02 be 13 5c 4e be
       -0.051996563 -0.123227745 -0.12746505 -0.20152311
0003a0 88 d1 65 be 0b 43 5c be e2 5e 27 be 3a d7 0c bc
       -0.22443211 -0.2150995 -0.16344789 -0.008596236
0003b0 84 d5 0e be 55 24 a2 be ea 07 d7 3d ac 9d 35 be
       -0.13948637 -0.31668344 0.10499556 -0.17735928
0003c0 ba 47 4b be cb 0e e7 bd d6 48 88 be 04 fb d8 bd
       -0.1985158 -0.112821184 -0.2661807 -0.105947524
0003d0 1c 18 34 be 6c e7 92 bd f3 08 8d 3b ec 1a 0e bf
       -0.17587322 -0.071730465 0.0043040453 -0.5550983
0003e0 53 c0 00 be 24 6c 3b be 49 7d df be a0 e7 95 bc
       -0.12573366 -0.18302971 -0.43650272 -0.018298924
0003f0 d5 dd 1b be 4b a5 fc be 30 26 82 be cc 04 9a be
       -0.15221341 -0.4934486 -0.2541976 -0.30081785

net.1.running_mean f4 [512]
000000 00 40 cb 3d f6 8f 16 be 55 07 1c be 87 5f 7e bd
       0.099243164 -0.14703354 -0.15237172 -0.06210282
000010 62 25 1d be c4 a9 35 be c8 60 13 3f 2c f8 bc bd
       -0.15346292 -0.17740542 0.5756955 -0.092270225
000020 e7 66 6e 3d d7 c2 9c bd 0b 7b 92 be b4 ea 07 be
       0.058203604 -0.0765435 -0.286095 -0.13273126
000030 77 92 92 be e5 71 89 3d 40 57 80 be b8 5c 8b 3e
       -0.2862737 0.06711177 -0.25066566 0.27219176
000040 44 c7 85 3d df 5a af be d5 b7 60 bd d5 ce 80 3e
       0.065321475 -0.34249017 -0.054862816 0.251578
000050 42 da 13 be b6 13 16 bf f6 9d fa 3d 84 51 7c be
       -0.14438727 -0.58623827 0.1223716 -0.2464047
000060 7c d1 6f 3d fa 1a 97 bd 78 a9 36 be df f4 85 3c
       0.05854939 -0.07378192 -0.17838085 0.016352115
000070 55 24 e1 3d c4 fb 57 bd fa 5c 78 bd 69 c4 00 3e
       0.10993258 -0.052730337 -0.060635544 0.12574925
000080 ec 1b 2a 3f 73 87 b2 3e 58 4e 46 3e 3d fe 0a bd
       0.66448855 0.34868965 0.19365823 -0.033933867
000090 d7 3e 10 bf 1f fb 3d 3e 12 ee b9 bd 3f 63 c0 bd
       -0.56345886 0.18552826 -0.090786114 -0.0939393
0000a0 32 2f de 3d 97 21 10 be a8 4f b5 bb ef ed aa 3d
       0.108488455 -0.14075314 -0.0055331774 0.083461635
0000b0 ed 6c 9f be c7 b8 78 bd 04 98 3f be 1d 83 a2 be
       -0.3113779 -0.060723092 -0.18710333 -0.31740656
0000c0 35 65 3b be 08 8b 4b be 0c 8c c0 bc 07 02 5a 3e
       -0.18300326 -0.19877255 -0.02350428 0.21289836
0000d0 93 c6 ad 3e 48 98 38 3c 53 1e 55 bd fe ac 03 3e
       0.33940563 0.011266775 -0.052030873 0.1285896
0000e0 ad 4c f4 bd 6c 7f 9a bd c9 83 a9 3e 9b e1 5b bc
       -0.11928687 -0.07543835 0.33108357 -0.013420488
0000f0 80 83 59 3d 6b 3d 0c be b3 4c bd bd ff 51 10 3d
       0.053103924 -0.13695304 -0.09243145 0.035234448
000100 27 02 67 3e 5b 2b c2 3c b5 b0 3d 3e ac 0b 9c bb
       0.22559415 0.023702314 0.1852444 -0.0047621336
000110 57 53 8f be 77 23 ca bc 66 a0 72 3c f8 94 66 bd
       -0.2799327 -0.024675114 0.01480875 -0.05629441
000120 fd 1c bc bd 3c 69 2e be dd ac 99 bd 46 ea 83 bd
       -0.091852166 -0.17032331 -0.07503674 -0.064411685
000130 a5 e9 37 be 54 74 72 3e 67 44 d0 3d 32 76 b4 bd
       -0.17960222 0.23677188 0.10169297 -0.088116065
000140 74 07 a3 bd f7 07 8f be 28 d7 bf be 59 9a 7b be
       -0.07960406 -0.27935764 -0.3746884 -0.24570598
000150 28 51 55 bd 72 2d f1 bd 25 dc b0 bd 30 31 9c be
       -0.05207935 -0.11776246 -0.08635739 -0.30506277
000160 bd e9 44 bd c0 09 92 3e b8 e5 17 3b 02 ae c4 3e
       -0.048074473 0.28523064 0.0023177695 0.38414007
000170 8e 4e ae 3e 2b ea 86 bd 7a 8f 17 bd 8c 3a 7d be
       0.34044307 -0.06587633 -0.037002064 -0.24729365
000180 3d e1 91 bb 0a 57 08 be 88 d1 8a be 47 32 bc 3d
       -0.0044518993 -0.13314453 -0.27112985 0.09189277
000190 8c b9 f1 3d 1c d4 01 3e cd a2 a9 3b 00 49 40 3e
       0.118029684 0.1267857 0.005176878 0.18777847
0001a0 a6 b0 25 3e 50 7d 1e be 83 58 f0 bc 23 88 56 be
       0.16180667 -0.1547749 -0.02933908 -0.2095037
0001b0 7b 42 18 bd fc ce 2e bd 86 fc e5 3d cd 83 6e 3e
       -0.037172776 -0.042677864 0.11229806 0.23292466
0001c0 82 59 13 bc 44 2f 8b 3e bd 48 18 be b3 f3 ca 3e
       -0.008993508 0.27184498 -0.14871497 0.39639053
0001d0 7a 53 e5 3d ea 57 74 3c c8 e6 c8 be bd 46 3e be
       0.111975625 0.0149135385 -0.39238572 -0.18581672
0001e0 e0 53 7f be 93 32 87 be 33 0e 5d 3d d6 59 eb 3e
       -0.2493434 -0.26405773 0.05396862 0.45966977
0001f0 68 5c 02 be 18 8d 17 3e 78 79 c7 3e 26 e0 95 bd
       -0.12730563 0.14799917 0.3895986 -0.073181435
000200 c2 b4 6f be 79 46 39 be 94 38 01 3d 59 41 0c be
       -0.23408797 -0.1809329 0.031548098 -0.13696803
000210 26 34 68 3e 79 21 3f bd 94 95 96 be 82 6d 92 bd
       0.22676143 -0.04666278 -0.29410994 -0.07149793
000220 df af 3c 3e 2e 78 15 be ef e3 44 3d 81 02 79 be
       0.18426464 -0.14596626 0.048068937 -0.24317361
000230 0c 22 36 3e f4 87 a5 bc 60 0a 3e 3e f8 49 96 3e
       0.17786425 -0.020206429 0.18558645 0.2935331
000240 1c 1e d2 bd 6e fd ab 3d e0 8a e5 3b 31 21 fd 3d
       -0.10259649 0.08397947 0.0070050806 0.123598464
000250 61 24 73 be 4f 8e b5 3e 13 09 cf bd b5 4f 03 be
       -0.23744346 0.35460135 -0.10109153 -0.12823375
000260 0f c8 0d 3e 02 a0 44 be c0 ce 33 3e c0 46 16 bd
       0.13845848 -0.19201663 0.17559338 -0.036688566
000270 ab 3d e8 bd f8 95 75 3e 1a 07 07 be 36 bb ca bb
       -0.11339887 0.2398299 -0.13186303 -0.006186868
000280 38 24 2a be 38 73 0c 3d e1 de 90 3d b4 af a1 3e
       -0.16615379 0.03428957 0.07073761 0.31579363
000290 56 a3 28 be ac f7 06 be 9e 72 54 be a2 e3 5f be
       -0.16468558 -0.13180417 -0.20746848 -0.21864179
0002a0 51 68 9a be e8 e9 3b be 4c d3 69 3e 5a 66 79 bd
       -0.30157712 -0.18350947 0.2283451 -0.060888626
0002b0 4b ac 76 bd 8d 03 88 bd b1 1d 6f bd 2e 73 95 be
       -0.060222905 -0.06641302 -0.058377925 -0.29189438
0002c0 7a f1 86 bd d4 55 d3 3d 96 15 96 be 6d f4 a1 3d
       -0.06589027 0.10319105 -0.29313344 0.07907949
0002d0 fc 4c 4b 3d ff 47 aa be b3 2f 99 3c 82 7f 50 bd
       0.049633965 -0.33258054 0.018699503 -0.05090285
0002e0 f0 a6 fc bd aa 81 a3 3d 20 03 ee 3d db 69 b8 3d
       -0.12336528 0.07983716 0.1162169 0.09004565
0002f0 de c1 9e be f9 92 a7 3d 03 5c 29 bf 52 44 de 3c
       -0.31007284 0.0818233 -0.66156024 0.027132187
000300 17 0e cf 3d 77 d8 2c bd 26 f4 c5 3b ce fa 01 3e
       0.10110109 -0.042198624 0.0060410677 0.1269333
000310 2a cc 4e be 1d ea 35 be 3e 9b b0 3d 04 fa 8e 3d
       -0.2019507 -0.17765088 0.0862336 0.069812804
000320 b3 88 b7 bd 95 79 6e be 2b 1e 7b 3e 06 2f 71 3d
       -0.0896162 -0.23288567 0.24523227 0.058882736
000330 aa 73 ff bd 61 d2 b2 3d cc 34 5c bc f6 5b 28 bc
       -0.12473233 0.08731533 -0.013440322 -0.010275831
000340 80 67 80 3c bf 61 d5 bd 35 f4 30 bd 52 33 ed bd
       0.015674353 -0.10419034 -0.043201644 -0.11582054
000350 7e 4e 63 bd 16 d5 79 be 7f c0 49 be 19 64 78 bd
       -0.055494778 -0.24397692 -0.19702338 -0.060642336
000360 29 40 60 be b4 29 38 3e ad 8a 12 be 9d f2 75 bd
       -0.21899475 0.17984658 -0.14310713 -0.060045827
000370 9e 04 49 be 79 33 81 bd 0a 68 3e 3e 72 5b 13 be
       -0.19630668 -0.06308646 0.18594375 -0.14390352
000380 94 03 a1 be 07 ad bf bd 06 ad e8 bd 14 f4 85 be
       -0.31448042 -0.09359174 -0.113611266 -0.2616278
000390 ac f4 36 be 78 67 21 bd c6 b1 8f be 5b a1 a8 3c
       -0.17866772 -0.039405316 -0.28065318 0.020584753
0003a0 a6 56 71 bd 72 7d 13 3e 8e 91 83 3d db d7 b8 3d
       -0.058920525 0.14403322 0.06424247 0.09025546
0003b0 f6 14 8c bd 75 f9 c5 bd fd 6d 0f bd 82 e6 b2 be
       -0.068399355 -0.09666721 -0.035017002 -0.34941489
0003c0 e3 0e 33 3e 3e 6d 89 3e 5c 90 76 3e ff d8 47 bd
       0.17486148 0.26841158 0.24078506 -0.048790928
0003d0 50 66 3a 3e 83 07 16 3d 4f d0 d6 bc 44 54 53 be
       0.18203092 0.036628257 -0.026222376 -0.20637614
0003e0 f9 b6 18 3e 3a 48 d7 bd 43 89 a2 be 12 c9 f7 3d
       0.14913549 -0.10511823 -0.31745347 0.12098898
0003f0 5a b5 f5 3d 4e 42 9a be 17 5b a9 be 5a 87 d2 3d
       0.11997481 -0.3012871 -0.3307731 0.102797225

net.1.running_var f4 [512]
000000 39 57 7d 3f 51 73 a3 3f 13 28 ff 3e 85 cf 53 3f
       0.98961216 1.2769567 0.49835262 0.82738525
000010 41 d1 b4 3f 42 07 bc 3f 33 6d c0 3f 81 ef aa 3f
       1.4126359 1.4689715 1.5033325 1.3354341
000020 3e a9 5d 3f af 86 0d 40 cf 66 e9 3f e7 1c a8 3f
       0.8658637 2.2113454 1.82345 1.313382
000030 a7 8a 55 3f 80 a0 c2 3f 3a 46 8c 3f 24 22 6d 3f
       0.8341469 1.5205231 1.0958931 0.9263022
000040 87 38 62 3f 26 d6 a6 3f 7b 99 a7 3f 3e de 3c 3f
       0.88367504 1.3034103 1.3093714 0.73776615
000050 6c d9 f7 3f f7 24 a9 3f 53 a0 b9 3f 35 e0 e0 3f
       1.9363227 1.3214406 1.4502052 1.7568423
000060 f7 52 a7 3f cc ff c8 3f 00 5e 33 3f db 5a da 3e
       1.3072194 1.5703063 0.7006531 0.42647442
000070 8f 40 21 3f e0 dc 4b 3f f5 8a 58 3f 02 33 de 3f
       0.62989134 0.79633904 0.8458703 1.7359316
000080 a6 19 c5 3f 04 9c 8c 3f 5a 1f 75 3f e7 e1 9a 3f
       1.5398452 1.0985112 0.95750964 1.210019
000090 83 53 86 3f 83 53 8b 3f 94 9b 91 3f 94 64 bd 3f
       1.0494236 1.0884861 1.1375604 1.4796319
0000a0 15 87 94 3f 64 45 02 40 82 58 fb 3f 12 4a f1 3f
       1.1603724 2.0354853 1.9636385 1.885073
0000b0 e7 6c 57 3f bc 60 6b 3f a9 46 76 3f 4a 38 00 40
       0.84150547 0.9194448 0.9620157 2.0034356
0000c0 77 d2 58 3f 86 f0 85 3f 48 5c c2 3f 71 9d 0f 40
       0.84696144 1.0464027 1.5184412 2.2439845
0000d0 8d 7e 95 3f b5 64 8a 3f 6c 64 06 40 ee 96 62 3f
       1.1679245 1.0811983 2.0998793 0.8851155
0000e0 8b 47 fc 3f de 9b 10 40 aa d1 92 3f bc 15 82 3f
       1.9709333 2.2595134 1.1470234 1.0162883
0000f0 de 7b 41 3f af b1 92 3f 42 db f9 3f 81 1f 1c 3f
       0.7557963 1.1460475 1.9520037 0.6098557
000100 d0 67 58 3f 93 11 b4 3f 2b e5 10 40 7e f5 51 3f
       0.84533405 1.4067863 2.2639873 0.82015216
000110 40 1c 60 3f 04 84 9d 3f 8e 04 c2 3f 4c 97 08 3f
       0.87543106 1.2305913 1.515764 0.5335586
000120 5d bd ae 3f 10 ac 4d 3f f1 a6 b7 3f e0 aa c3 3f
       1.3651539 0.8034067 1.4347821 1.5286522
000130 b1 33 8c 3f d4 e3 18 40 22 a5 88 3f 5a 67 62 3f
       1.0953275 2.3889055 1.0675395 0.8843895
000140 ec 30 a1 3f 97 b6 10 40 72 49 3b 3f d1 f7 e6 3f
       1.2593055 2.2611444 0.73158944 1.8044378
000150 ff 44 0a 40 29 13 b9 3f 64 17 92 3f e8 f9 ca 3f
       2.1604612 1.4458972 1.1413388 1.5857515
000160 b2 ad 73 3f 4c 87 92 3f 99 85 76 3f 58 62 96 3f
       0.95186913 1.1447539 0.96297604 1.1748762
000170 20 71 59 3f e1 6f fb 3f 71 a9 b2 3f ec 5a 24 3f
       0.8493824 1.9643518 1.395796 0.64201236
000180 6a 4b 91 3f 2d 9b 61 3f 22 ff a1 3f eb ac 04 40
       1.135114 0.88127404 1.2655985 2.073054
000190 6a 85 6e 3f ad ca 36 3f 0b fa 58 3f 67 99 60 3f
       0.93172324 0.7140301 0.84756535 0.87734073
0001a0 02 25 cb 3f 4d 06 1f 40 6c e9 8e 3f 5b e3 30 40
       1.5870669 2.4847596 1.1164985 2.7638767
0001b0 5c 3f 71 3f 30 66 67 3f d0 c3 0a 40 16 b7 e9 3f
       0.94237304 0.903903 2.1682014 1.8258998
0001c0 a6 68 9f 3f de 40 79 3f 16 f9 09 3f 0d b6 b1 3f
       1.2453811 0.97364604 0.538957 1.3883682
0001d0 56 ea a2 3f 66 dc 8e 3f 03 4d 88 3f 94 4a a6 3f
       1.2727764 1.116101 1.0648502 1.299151
0001e0 3b 5b 7f 3f cf ae f1 3f 59 e9 73 3f 38 5a f1 3f
       0.9974858 1.8881472 0.95277935 1.8855658
0001f0 c7 5b 2e 3f e4 9f 40 3f c5 8c 44 3f 80 cc 5f 3f
       0.6810879 0.75243974 0.767773 0.8742142
000200 28 ff 97 3f b3 6b 8c 3f 8d 06 5c 3f 9d a6 c0 3f
       1.1874743 1.0970367 0.85947496 1.5050846
000210 d6 7c dd 3f 13 b6 ac 3f 33 89 d3 3f a4 42 3a 3f
       1.7303722 1.3493065 1.6526245 0.72757936
000220 16 1a ac 3f e5 53 8c 3f 48 91 22 3f 1f 91 f2 3f
       1.3445461 1.0963103 0.6350293 1.8950537
000230 fb 3a 86 3f bf c4 61 3f 20 75 a1 3f 40 36 77 3f
       1.048675 0.88190836 1.2613869 0.96567154
000240 74 72 d3 3f 71 0b e0 3f a4 8f 86 3f 36 de 13 3f
       1.6519303 1.7503492 1.0512586 0.5776094
000250 9a 22 82 3f 99 e8 31 3f c7 6e 86 3f 2a 19 a6 3f
       1.016681 0.6949554 1.0502557 1.297643
000260 f3 29 69 3f f3 61 b8 3f f8 d6 0e 40 9a a2 97 3f
       0.91079634 1.4404892 2.2318707 1.1846497
000270 95 f4 21 3f fa fd 36 3f 0e 8c 7c 3f 92 12 9b 3f
       0.6326383 0.7148129 0.98651206 1.2115042
000280 95 38 6c 3f 27 86 81 3f a2 c5 91 3f 67 e4 f7 3f
       0.9227384 1.0119065 1.1388438 1.9366578
000290 a3 ef a8 3f dc e0 c9 3f 79 e5 c9 3f 88 83 93 40
       1.3198131 1.5771747 1.5773154 4.609806
0002a0 b0 47 95 3f 88 7a c9 3f 8a 72 51 3f d8 74 31 3f
       1.1662502 1.5740519 0.818154 0.69318914
0002b0 8c 1c b0 3f e1 95 8f 3f e4 ea 76 3f de 19 e6 3f
       1.3758712 1.1217614 0.96452165 1.7976644
0002c0 a3 98 d1 3f 9a 4b f1 3e b8 30 43 40 93 e8 8f 3f
       1.6374706 0.47127992 3.0498486 1.1242851
0002d0 c2 4d 41 3f 97 62 54 3f df 89 f2 3f 38 ca 8b 3f
       0.75509274 0.82962936 1.8948325 1.0921087
0002e0 f7 90 06 40 56 60 2f 40 3a 8e 9f 3f 25 1c 7c 3f
       2.102598 2.7402549 1.2465279 0.98480445
0002f0 82 d8 2a 3f 6d c0 91 3f e2 f2 e9 3f b2 d9 b4 3f
       0.66736615 1.1386849 1.8277247 1.4128935
000300 07 b4 63 3f 78 6e 4a 3f 43 9f d9 3f f3 1e 7a 3f
       0.88946575 0.7907481 1.7001728 0.97703475
000310 f3 ed ce 3f 82 cf da 3f 3d 27 d7 3f ba c2 8b 3f
       1.6166366 1.7094576 1.680885 1.0918801
000320 c4 19 26 3f 58 47 06 40 b5 f8 67 3f b8 14 95 3f
       0.64883065 2.0981045 0.9061387 1.1646948
000330 b6 ef 4d 3f 24 bf 15 3f 50 33 31 3f 32 30 d3 3f
       0.80443895 0.5849478 0.6921892 1.6499083
000340 af e1 03 40 3e 5f 7e 3f b7 28 d4 3f 3d fd b6 3f
       2.0606496 0.9936408 1.6574925 1.4296032
000350 be 28 97 3f 7e b2 8a 3f cc ef 24 40 9e 1a 3d 3f
       1.1809309 1.0835721 2.577136 0.7386874
000360 85 0e 8d 40 4f 6a 84 3f 51 bb 92 3e f1 f1 48 3f
       4.4080224 1.0344943 0.28658536 0.78494173
000370 51 dc ae 3f 1e fd 80 3f a6 35 eb 3f 17 43 ea 3f
       1.3660985 1.0077245 1.8375747 1.8301724
000380 42 f6 27 3f 8e 0b 9e 3f 63 05 dc 3f d7 99 ed 3f
       0.65610135 1.2347276 1.7189144 1.8562573
000390 b8 e0 c5 3f de 5f a4 3f bc 8d 98 3f 91 a2 d9 3f
       1.5459204 1.2841756 1.1918254 1.7002736
0003a0 86 db 8b 3f 7c 10 9a 3f 7d 80 91 3f 9a 9d 5d 3f
       1.0926368 1.2036281 1.1367337 0.86568606
0003b0 50 4d d4 3e d8 f7 b1 3f 2f 5d 99 3f f7 a5 94 40
       0.41465235 1.3903761 1.1981562 4.6452594
0003c0 77 a0 a8 3f b8 a5 85 3f 8f 24 51 40 19 9f 8c 3f
       1.317397 1.0441198 3.2678564 1.0986053
0003d0 83 b4 a3 3f 7f 7b 97 3f 84 80 24 3f 96 b9 9a 3f
       1.2789463 1.1834563 0.642586 1.2087886
0003e0 eb 5e cb 3f 43 27 68 3f 36 d6 9f 3e a2 58 22 3f
       1.5888342 0.9068491 0.31218117 0.6341649
0003f0 1d 85 83 3f 23 85 cd 3f 42 95 8e 3f 43 e2 38 3f
       1.0274998 1.6056255 1.11393 0.7222025

net.4.weight f4 [256, 512]
000000 05 c4 b2 bd 3b 3b 3e 3d e7 b8 23 be 82 70 0b be
       -0.08728794 0.046443205 -0.15988503 -0.13617137
000010 36 34 01 3e 49 bc 75 bd e6 9d 49 bd b1 78 d8 bd
       0.12617573 -0.059994016 -0.04922285 -0.10569895
000020 45 41 1b 3d 46 0e a9 bd 8e f1 8f 3d a9 af ae 3c
       0.037904043 -0.082546756 0.07028495 0.021323996
000030 3d 6a 0f be bc 7a 0e be b3 4b d7 bd b7 44 0b 3e
       -0.1400537 -0.13914007 -0.10512485 0.13600431
000040 6d 85 31 bd 06 57 c8 bc 53 3a 52 bb 9f f8 4d bb
       -0.043340135 -0.024455559 -0.003207822 -0.0031428707
000050 2a 4f 66 3d 32 c1 d9 bd d6 7a 84 3d 7d 21 c2 3c
       0.05622784 -0.10632552 0.064687416 0.02369761
000060 38 0a b7 bc 6e 4d 9a bd 1c 17 af bd 6d 87 36 3d
       -0.02234374 -0.075343 -0.0854933 0.044562746
000070 d3 87 cb bc f7 fc ad 3b d6 c0 83 be b2 e0 d6 bc
       -0.02484504 0.005309697 -0.2573306 -0.02623019
000080 a6 f3 12 3c 6d cf 8c 3d a9 72 b4 bd f5 aa 37 be
       0.008969223 0.06875501 -0.08810932 -0.17936309
000090 26 7a 0d 3d f7 e1 97 3b c1 6f 09 3d 87 f3 cc 3d
       0.034540318 0.0046350914 0.033553842 0.10007387
0000a0 8f c3 ef 3b 82 d6 07 3d 87 18 05 bd 86 b5 8f 3b
       0.0073170136 0.033163555 -0.032494094 0.004385653
0000b0 59 0b 12 3d ae 22 c2 bd a7 13 03 be 35 76 99 bc
       0.035655353 -0.09479271 -0.12800466 -0.018733123
0000c0 37 40 06 be de 7e 25 be 5d 1a 11 3e 19 a4 38 3e
       -0.13110434 -0.16161677 0.14170213 0.18031348
0000d0 27 04 f3 3c fe bf 3b 3e b3 b0 2e bc f3 a5 b9 bb
       0.029665066 0.18334958 -0.010662246 -0.0056655346
0000e0 56 9e bc bc f6 5d f6 bc 7b be 44 3e 82 35 ba bc
       -0.02302472 -0.030074101 0.19213288 -0.022730593
0000f0 99 ab 78 bc bc 19 5c 3d 75 a7 fb 3b 10 17 80 bd
       -0.015177631 0.05373548 0.0076798745 -0.06254399
000100 25 f9 d5 3d 22 e1 5d bd 26 b0 00 3d 7b af 25 3d
       0.10447911 -0.05416978 0.03141799 0.040450554
000110 c6 46 cd bc fe 4c 40 3d e7 63 bd bd ca 62 c5 bc
       -0.025058161 0.046948425 -0.092475705 -0.024094958
000120 18 05 24 be 16 fd 4e 3c 72 b0 17 bd 9e 10 56 3d
       -0.16017568 0.012633583 -0.037033506 0.05226194
000130 38 49 4a 3b b0 4c 8a 3d 85 1c da 3d f9 92 75 be
       0.0030866396 0.06752908 0.10649971 -0.23981847
000140 d6 0b a0 3c 11 84 45 3d 78 60 33 bd 07 16 02 bd
       0.019536894 0.04822165 -0.04379317 -0.03175929
000150 94 80 81 3c 4c 13 0d 3d f5 06 90 bd 6c 13 95 3d
       0.015808381 0.03444223 -0.07032577 0.07279095
000160 09 0c 4d be fc 0e bd 3c 98 8b f9 3c d1 cb a3 3d
       -0.20024122 0.023078434 0.030462071 0.07997859
000170 df d9 05 3c 60 ea 37 3e ac 50 28 3d f8 44 16 bd
       0.00816962 0.179605 0.04109256 -0.036686867
000180 ef 94 35 3e 75 f3 c1 3d 2e 06 66 3c 17 38 2c bd
       0.17732595 0.09470264 0.014039559 -0.04204568
000190 86 01 aa bd e4 4e 5a be 44 0d e2 bd fd 12 03 bd
       -0.08301072 -0.21319157 -0.110376865 -0.03200053
0001a0 3e 93 8b bd 54 8f 10 bd c9 bb 0c 3d 30 ab b2 bb
       -0.068151936 -0.03529294 0.034358773 -0.005452536
0001b0 7e 30 08 bd 6e 22 40 bd 76 10 21 3d 77 f4 a7 3d
       -0.03324937 -0.046907835 0.03932234 0.08200925
0001c0 39 c9 22 3c c8 34 3c bd cb f7 1b be 07 00 e3 3d
       0.0099356705 -0.045948774 -0.15231244 0.110839896
0001d0 31 02 10 3b 97 42 5e 3d e8 8b f8 bd 34 48 2d bd
       0.0021973962 0.054262724 -0.1213606 -0.042305186
0001e0 cc 9f 9a 3d 38 36 ac 3c c9 10 33 3d 45 2f 06 3e
       0.0755001 0.021021947 0.04371718 0.1310397
0001f0 99 3f 06 3c eb c1 44 3d d3 7b ab bd 26 31 ce 3d
       0.008193874 0.048036497 -0.08373227 0.10067968
000200 e0 7f 25 3e f2 ac 66 bc d8 32 32 3d 51 02 69 3d
       0.16162062 -0.014079319 0.04350552 0.056886975
000210 64 b8 c2 bb 5e e0 66 bd 74 99 5b 3d 9a bf 7e bd
       -0.005942391 -0.056366317 0.05361314 -0.062194444
000220 58 23 8a 3d 06 c1 44 3d 53 e5 dd 3c 85 1e 9c bc
       0.067450225 0.048035644 0.02708689 -0.019057522
000230 b2 4f cd 3d 73 7b 4f 3b 6b b1 f3 bd 37 67 68 bd
       0.10024966 0.0031659275 -0.11899074 -0.05673906
000240 2e e9 ba 3b ec b9 10 bc 6b 03 d2 3d 37 43 32 3d
       0.0057040667 -0.00883339 0.10254558 0.043521132
000250 29 22 cd 3c be 07 f2 3a 8c 89 bc bc 46 2a 8e bd
       0.025040703 0.0018465442 -0.023014806 -0.06941657
000260 5b dd 34 bc 1d 66 96 3d 5c 62 01 3d 31 86 d5 bc
       -0.011039103 0.07343695 0.031587943 -0.026064964
000270 b3 64 59 3d 25 d1 f5 bd 1d fe 42 bc 87 36 75 3d
       0.05307455 -0.12002782 -0.011901406 0.059866454
000280 36 88 ac 3c ea fc dc bd 60 98 51 bd 4d a5 fc bd
       0.021061044 -0.10790427 -0.051170707 -0.12336216
000290 b6 0d 08 bd 3e 96 f3 3c 38 a6 a9 3d 3a 12 6f 3d
       -0.0332162 0.029734727 0.08283657 0.05836699
0002a0 08 24 03 bd d6 fd 30 3d ea 65 8b 3d 60 b7 20 be
       -0.032016784 0.043210827 0.06806548 -0.15694952
0002b0 31 4a e1 3d ff 2e ee bc 17 69 d1 3d e1 ff 12 be
       0.11000479 -0.029075144 0.102251224 -0.14355423
0002c0 f3 8e b0 3d 32 89 9e 3b 5e c1 c2 bd 0b e9 a4 3c
       0.086210154 0.0048381323 -0.09509538 0.020130655
0002d0 a4 fc 24 3e 0e 9b 8b 3d 82 e9 a7 3b d5 ac c8 3d
       0.16112 0.06816684 0.005124272 0.0979859
0002e0 30 3a 42 bd b9 72 43 bd e3 83 e8 bc d9 3e 5b bd
       -0.047418773 -0.04771683 -0.028383201 -0.053526733
0002f0 ee d1 a7 3c 40 46 82 be ae 8f f5 bc 35 78 a9 3b
       0.020485844 -0.25444221 -0.029975738 0.0051718005
000300 5c 9c fa bd ce 55 5e 3d d9 0a 7e bd ac d1 b6 3d
       -0.122368544 0.05428105 -0.062022064 0.089267105
000310 be 57 92 3d 80 d3 a5 bc 11 ca 21 3d c6 10 d5 bc
       0.07145642 -0.020242453 0.039499346 -0.026008975
000320 5f ff 0d bd 8a 3a 1c 3e c1 d4 b5 3d 69 31 bd 3c
       -0.03466737 0.15256706 0.0887847 0.02309485
000330 58 18 19 3e 36 32 4b bd 47 01 bb 3b 04 e6 09 3c
       0.14950693 -0.04960843 0.0057069394 0.008416656
000340 d3 f5 c3 bc eb c3 f9 bd 12 72 95 3d cf 31 09 3c
       -0.023920929 -0.121955715 0.07297148 0.008373692
000350 54 e6 8c 3d 6b 51 5d ba 57 b2 bf 3d 6f 4f 65 bd
       0.06879869 -0.0008442613 0.093601875 -0.055983957
000360 9e 8c 16 ba 6a ac cb 3d bf 59 6b 3d eb aa 87 3d
       -0.00057429995 0.09944995 0.057458635 0.06624397
000370 2d de 1e 3c 32 63 c3 bc 0c 40 4c 3d 6e 2f 70 3d
       0.0096965255 -0.023851011 0.049865767 0.058638982
000380 c7 b2 0f be e9 49 1a bd d1 9d 99 3d a5 b5 e9 3d
       -0.14033042 -0.037668142 0.07500804 0.11411599
000390 96 1c b3 bc a1 b5 32 bd 45 2d aa 3d 72 4f 8a 3d
       -0.021864217 -0.043630246 0.08309416 0.06753434
0003a0 a7 45 2b 3d 07 41 e4 bc 93 6a f6 bc 9d 59 a8 3c
       0.041814473 -0.027863039 -0.030080115 0.020550543
0003b0 e1 ec 62 3d 8b bc 82 3d 72 86 21 bd 40 10 94 3b
       0.055401687 0.06383618 -0.039434858 0.0045185387
0003c0 a9 45 ee 3b 38 62 eb 3c e3 2d d2 3d b0 fb d4 bd
       0.0072714877 0.028733358 0.102626584 -0.10399568
0003d0 76 a2 b2 3d 0f e3 b5 3c fc 70 49 3c ab 6e 89 3d
       0.08722393 0.022202997 0.012295004 0.06710561
0003e0 e7 5d d8 bc ae d6 26 3b d8 53 64 bd 78 b7 b0 bc
       -0.026411964 0.002545755 -0.055744022 -0.02157186
0003f0 ad 5b df 3d b6 f0 10 bc 40 d3 2d bc 70 8c 03 bd
       0.10906158 -0.008846452 -0.010609448 -0.032116354
