models/ffn.pt (torch, 682661 bytes, 5 tensors)

net.0.weight f4 [256, 534]
00000000: c2c4 08be 5061 0e3c 43fb e93d 84fd 9fbc
00000010: da4c 5f3c 6640 ff3d b25c e83d caf3 87bd
00000020: e9a0 163c a197 0e3e 5983 7e3c 724f 053e
00000030: 1a4b 6a3d 07b2 853d 5d10 713d d556 07bd
00000040: 34df 91bd 3e08 1b3e 87e8 16be 3c68 f63d
00000050: 01c5 2bbc ced7 9d3c 0513 dd3d e355 b43c
00000060: 2a42 1bbd 0848 d1bc 9dbe b53b abe3 063e
00000070: 7318 753c 0da8 82bd aa95 75bc 4254 573c
00000080: aaf2 07be 0b40 ea3c f91a 793c 3bc9 5a3d
00000090: c0f0 8a3d 2579 a6bd 70e8 9bbd 4934 583d
000000a0: e03b 1e3d 2333 eabd 56d7 57bd 621d 0d3e
000000b0: 8165 45bd 6b2f 503d 6b26 02bd 3c89 a6bb
000000c0: 06b1 2c3d 3bc9 403d 843a b43d cca6 66bc
000000d0: 8668 8abc 86cc 6b3c bfa3 05bd e736 df3d
000000e0: 17ce 2b3d 8195 c4bc d049 973c c56f 403d
000000f0: 1dfe 21bd 19c0 1fbe 2eae 6e3d 76fd 423b
00000100: e3c9 b9bd e722 2e3c 7713 6cbd 8090 a1bd
00000110: 812f d43d 2b09 3c3d b0ff 0b3e 4050 573d
00000120: 1244 273c 6e0b 36bd 757c b3bc e95c 31bd
00000130: a291 aa3c e78c c5bd 9a32 40bd 6bfa 30bd
00000140: 7a65 bfbd 9dbd 83bd a93f 243d 70fe a53c
00000150: d069 2bbd 2062 fabd cc06 1dbe 0dea b93d
00000160: 3449 adbd e644 0bbe 03d4 6dbd 2a69 ca3c
00000170: b1ac 053d 29e7 9dbc 2b56 723d 0408 153c
00000180: 51df 5d3d 84f9 c63d a485 603e 7002 6fbd
00000190: 6248 393d c623 673d 520d 5bbd 3f2c a33d
000001a0: 840b f5bd aa81 a5bd 9e6a f6bb d7c9 e5bd
000001b0: c6dd 02bd 65bc 183d 84dd e03d 68fa bc3d
000001c0: 6f1a 6cbd cc11 103e a659 c43c cf47 83bd
000001d0: 9a42 9fbd ed9a e83d dcbe 3dbd b2a7 8bbd
000001e0: 4c71 2d3d 3222 343d 6952 873c e84d e73c
000001f0: 82f2 e0bd d4e3 8abc b895 493c 328c d43d
00000200: 9d79 503c bc8f 3c3d c5fe b9bc bc33 d5bd
00000210: 1441 8dbd 2a6e 093e f0ed 5c3d e360 ecbc
00000220: 74e7 febb 3f46 08bb 46d8 4abd 951a 963c
00000230: 2298 b43d c38c 94bc 40e8 8c3d 6372 973d
00000240: 450c a53d 09f0 103e b5e2 fd3c a55d 56bc
00000250: 18d9 14bd 8e08 243d 1fc8 783d 1292 b23d
00000260: b3a4 c9bc ee91 b33c 1ca8 1fbd 01de 0cbe
00000270: f2f9 dfbd d91f cbbc 9ad7 c03d 152d 3f3d
00000280: a6e7 dabd 9208 d5bc 808a 193c a7e0 cfb9
00000290: 8324 7fbe a3b2 abbd a862 4d3b 1337 a43c
000002a0: 5cbe 433d 405e 1c3e f47d fabd defc de3d
000002b0: a443 9b3d c69d c5bd 72c5 833d 49c4 ee3d
000002c0: fb35 efbc a9e1 a43d 751a d13c dad4 de3b
000002d0: 71e7 e6bc 8f38 47bd b73c 2b3e 9a18 283e
000002e0: 27d6 2dbd eb8b 8a3d ae93 b73c eb83 6d3d
000002f0: e54b 753d 681f 0c3d 6181 5d3d 9412 cb3b
00000300: e2d8 56bb 3da3 0d3d e168 a6bd 91c4 9bbd
00000310: 73e8 aabd 6381 433d 0ae3 01be 0e8e 21bd
00000320: 485b 9dbd cf06 f83c a2e1 923d 4170 9d3c
00000330: e3f4 983d 779f 3bbd b8d6 663d 3141 9bbd
00000340: e839 c7bd 6361 83bc 8446 803d f492 33be
00000350: ab87 27be 1efa 603d ca44 92bd 6243 213e
00000360: 4b50 81bc c6f0 8cbd 481a 02bd 881d 69bd
00000370: 1975 d5bc f883 72bc 54e4 b03d a043 ab3c
00000380: 5574 8bbd ffcd 2ebd 11f9 91bd 097d 743d
00000390: cb63 b43d d637 0bbe 972d a53d 7f49 aebb
000003a0: a59c af3c 4757 673d bc39 cebb dd23 be3c
000003b0: 2e52 ae3c 2781 473c c71e 31bd ed25 ddbc
000003c0: 539a 94bd 6e35 83bc 447b a33d 6e52 573d
000003d0: 7738 aebd e239 0f3e 8605 10bd 0087 fb3a
000003e0: 15a1 533d b35c b4bc 8c67 9cbc ccef cf3d
000003f0: afd2 dc3d 33f1 193e 383b aa3d 4efe 613d
-0.13356307 0.008690193 0.114248775 -0.019530065 0.013629163 0.12463455 0.11345805 -0.06638296
0.009193637 0.1392503 0.015534245 0.13018587 0.05720053 0.06528097 0.058853496 -0.033041794
-0.07122651 0.15139863 -0.1473714 0.120316 -0.010483981 0.019267943 0.10794643 0.02201361
-0.037904896 -0.025547042 0.0055464045 0.13172786 0.014959442 -0.063797094 -0.014989296 0.013142647
-0.13276163 0.028594991 0.015204185 0.053414565 0.06784201 -0.08128575 -0.07612693 0.052784238
0.03863132 -0.11435535 -0.052695595 0.1378074 -0.048192505 0.05082647 -0.03177492 -0.0050822776
0.04216101 0.04706691 0.088002235 -0.014077853 -0.016895544 0.014392024 -0.032626864 0.10899144
0.04194459 -0.02399707 0.018467814 0.04698159 -0.039548982 -0.15600623 0.05827158 0.0029753125
-0.0907171 0.010628439 -0.05763575 -0.07888889 0.10360623 0.04590718 0.13671756 0.052566767
0.0102091 -0.044444494 -0.021909932 -0.043301497 0.020821396 -0.096460156 -0.046923257 -0.043207567
-0.09345527 -0.0643265 0.040099774 0.020262927 -0.041848958 -0.12225747 -0.15334624 0.09077845
-0.08461228 -0.13600501 -0.05806352 0.02470835 0.032635394 -0.019275265 0.059164207 0.009096149
0.05416805 0.0971556 0.2192598 -0.058351934 0.045235045 0.0564306 -0.0534795 0.07967424
-0.11965087 -0.08081372 -0.007520034 -0.112201385 -0.03194978 0.037289042 0.10979751 0.09227449
-0.057642397 0.14069289 0.023968529 -0.06410181 -0.07776375 0.11357675 -0.046324596 -0.06819095
0.042344376 0.043977924 0.016518788 0.02823539 -0.10983755 -0.01695434 0.012303762 0.10378303
0.012724307 0.046035513 -0.022704491 -0.10410258 -0.06897178 0.1342093 0.053937852 -0.028854793
-0.007779056 -0.0020793823 -0.04952266 0.018323222 0.088180795 -0.018133527 0.06880236 0.073948644
0.08058981 0.14154066 0.030991891 -0.01308385 -0.03633985 0.04004722 0.060737725 0.08719267
-0.024614668 0.02192017 -0.03897868 -0.13756563 -0.10936345 -0.02479546 0.09416123 0.046673853
-0.10688715 -0.026005063 0.0093714 -0.00039649496 -0.24916272 -0.083836816 0.0031339321 0.020045793
0.047788963 0.15270329 -0.12231055 0.10888074 0.07581261 -0.096492335 0.06434144 0.11658532
-0.029200545 0.08050854 0.025525311 0.006800276 -0.028186532 -0.048637923 0.1672238 0.16415635
-0.04244056 0.067649685 0.022409286 0.057987135 0.05988683 0.03420964 0.054078463 0.006197283
-0.003278308 0.034579504 -0.08125473 -0.076058514 -0.083451174 0.047730815 -0.12684265 -0.039442115
-0.07683426 0.030276684 0.07171942 0.019218566 0.074685834 -0.045806374 0.056357116 -0.07580794
-0.097278416 -0.016037649 0.0626345 -0.17536527 -0.16360347 0.05492603 -0.07142027 0.15748361
-0.015785357 -0.068818614 -0.031763345 -0.05691293 -0.026056813 -0.014801972 0.086373 0.02090627
-0.06809298 -0.042676922 -0.07127584 0.059689555 0.088080965 -0.13595518 0.08065336 -0.00531882
0.021436999 0.05647972 -0.0062935036 0.02321046 0.02127942 0.012176788 -0.043242242 -0.026995623
-0.072559975 -0.016016688 0.079824954 0.052568845 -0.085068636 0.13986924 -0.035161518 0.0019190013
0.05166729 -0.022016859 -0.019092344 0.101531595 0.10782372 0.15033416 0.08312076 0.055174164

net.0.bias f4 [256]
00000000: 81bc 97bc 5c50 aabd 7b68 acbd 4dca b6bd
00000010: d0bf e7bd dabd 4a3d 4711 44be a781 0b3d
00000020: f9b3 99be 8e2f 8c3d 97ce 8cbe 36f3 0cbe
00000030: 611d 91be 0bac 85be c229 23be 9ce9 c2be
00000040: daf9 52be f5d3 85bd e41d bfbc 5ffc 86bd
00000050: 0ea3 52be edef 29be 28bf e6bd 1570 2dbe
00000060: 450c 9fbe 4e86 37be 567f b43c 7ad6 85be
00000070: 45d2 7ebe 2146 863c fef9 c93b 9bbb e3bb
00000080: 497d 47be b7a3 afbe 281c 6ebe 67fb febd
00000090: f627 9ebe 2e3f 7fbe 0d2d 9ebe 8f12 803d
000000a0: 6de1 e2bd ff2b 93be 5885 54be a43b 793d
000000b0: fbef 6c3a ad17 963c da28 61be 7328 59be
000000c0: 8f49 04be c41a 36be 7bbc f9bd 6ddb 3cbe
000000d0: c24a 46be 5111 4bbe 23d9 3fbe 33e7 c2bd
000000e0: 1d36 1cbe 6708 95be f307 883d 3586 9ebe
000000f0: bdf1 01bd 83bf 9a3d 7104 09be ab39 91be
00000100: 0dbe 783d 1426 ae3d 10c4 09bd 7dd3 cdbc
00000110: a18b b13c 70a1 c7be cf8d 77be 0e52 fabd
00000120: 2ab1 a23c f09b 8bbd fe52 153e b90e c1be
00000130: 4fee 04be c8ab a5be 9887 71bd 5d20 71be
00000140: 95c4 a9be 8a61 7c3d de5f c5be d877 dabd
00000150: 3e8f 2a3d dc17 35be 37fa b83d fb19 abbe
00000160: c8d4 43be 4b16 d63c 2d5b 9f3c 3762 f8bd
00000170: 2c2f a7be 2199 59bd 64fc 34be 00c9 0cbd
00000180: 2bc5 1bbe b991 8abd 91dd 27bd 223b c0be
00000190: 8252 a1bc fe1f 153e 31c0 23be 24e0 4cbe
000001a0: b7bc bfbe c254 f6bd 4d3a 6abe c4b5 f8bd
000001b0: 6dc3 afbd 25d0 5bbe 104d 123d 4a43 5ebe
000001c0: 0710 bbbd 1724 91be 0e13 8fbe 5d69 5cbe
000001d0: 79fd 79be 2a91 babe 2100 96be b234 d3bd
000001e0: c236 6ebe 473a 9abe 7579 2dbe 265f 98bd
000001f0: 8d32 2cbe 4c3a 09be 2824 51bb 88eb 0cbd
00000200: fb6d b9be 622b 8bbe f012 8ebe fa87 9cbc
00000210: 891b 0bbe 5a1a 22be 26ed d5be 4f15 c7be
00000220: af83 66be deee b1be bb33 cabe 8d18 3dbe
00000230: 5c91 8cbd 891d 5dbe bf59 a8be 39cf 48be
00000240: a67b 083d d86a ddbd 5f1a 86be 3836 babd
00000250: 2803 4bbe e942 813a ba8e 9fbd 0306 a9be
00000260: 0966 cc3c 5ae0 5abe bd65 bcbe 3642 49be
00000270: ce34 75bd 0702 76be 2a17 f5bd 5d7e b6be
00000280: c0f0 58bd 8af6 3ebe c4d7 173d fea5 16be
00000290: f8cf 81be e717 c8be 92d4 3abe 6763 cabe
000002a0: 1004 3b3e ae72 65bd 142c 80be 7115 a0b9
000002b0: 9723 e4bc e2da c0bc e1a7 f43d 8f87 5ebe
000002c0: daca afbe ae96 ba3d b813 d1bd 22c6 dcbd
000002d0: 9d38 9dbe b63c c5bd 02c8 e2bc f442 8abc
000002e0: 14a0 73be 4ae3 cfbd 42eb 92bd ff4d 90be
000002f0: c19e fc3d c9b2 08be 9bde b1be f029 0abe
00000300: 80c5 203d 67dd b7be fcaf 7dbd 02ed afbe
00000310: ac27 85be b7de b7be 518f d0bd 6b28 3bbd
00000320: 8199 8abe 5746 5f3d f0ed 563d 54d4 f53b
00000330: 8dc5 41bd 67db 8fbe d786 96bd 5dc3 50be
00000340: 940b 3abe 28a1 16be b09d 76be 4eba 4e3d
00000350: c9a5 57bd eff5 56be f517 55be fb9f 74be
00000360: 43e9 15be 6f88 ecbd 0f46 c9bb 09ba edbd
00000370: 55eb c1bd cb44 d23d 170e 20be 2254 b8be
00000380: acc3 06bd 6989 673d 742e 64be df80 13be
00000390: 0492 d3bb 5d5d acbe d79a 5cbe 8ef3 0e3d
000003a0: ecd9 713d 9143 4ebe 71ee 65be 64bc 8ebe
000003b0: b411 6cbe 0648 c1be f4bf 53be cffd b73d
000003c0: 3632 45be 2ab8 41be 68ef b13c 110b edbb
000003d0: f20c 64bc e764 cbbe 8bf6 6abe c31b 52be
000003e0: d0bb 38be 9946 28bd d4a3 8cbe 57b2 1cbc
000003f0: e002 05be 52ca 423d e2ab 92be cb23 1dbe
-0.018522503 -0.083161086 -0.084183656 -0.089253046 -0.11315882 0.049497463 -0.19147216 0.034059193
-0.3002012 0.06845008 -0.27501366 -0.13764653 -0.28342727 -0.2610782 -0.15933898 -0.38068855
-0.20603123 -0.06534568 -0.023329683 -0.06591105 -0.20570013 -0.1659543 -0.11266929 -0.16937287
-0.31064048 -0.17922327 0.022033375 -0.26140195 -0.24884899 0.016390862 0.0061638346 -0.0069498545
-0.19481386 -0.34304592 -0.23252928 -0.12450295 -0.30889863 -0.24926445 -0.30893746 0.0625354
-0.11078153 -0.28744504 -0.20753992 0.060847893 0.00090384454 0.018321836 -0.2198824 -0.21206836
-0.12918685 -0.17783648 -0.12194153 -0.1844308 -0.19364455 -0.19830824 -0.18735175 -0.09516754
-0.15255018 -0.29107973 0.06642141 -0.30961767 -0.03172468 0.07556059 -0.133806 -0.2836431
0.06072812 0.085033566 -0.033634245 -0.02512526 0.021673026 -0.38990355 -0.2417519 -0.12222682
0.019859869 -0.06816852 0.1458244 -0.37706545 -0.12981533 -0.3235762 -0.058967203 -0.23547502
-0.33157793 0.061616458 -0.38549703 -0.1066739 0.041640513 -0.17684883 0.090321 -0.3341826
-0.19124138 0.026133677 0.019452656 -0.12128108 -0.32653177 -0.05312455 -0.17674404 -0.034371376
-0.15211932 -0.06766076 -0.040982787 -0.37545115 -0.019692663 0.14562985 -0.15991284 -0.20007378
-0.37448665 -0.12027885 -0.22873802 -0.12144044 -0.085821964 -0.2146612 0.035718024 -0.21705356
-0.09133916 -0.28347847 -0.27944225 -0.21524568 -0.24413098 -0.36438876 -0.29296973 -0.10312785
-0.23263076 -0.30122587 -0.16940863 -0.07440023 -0.16816159 -0.13401145 -0.003191242 -0.034404308
-0.3621672 -0.27181536 -0.27748823 -0.019107807 -0.13584723 -0.15830365 -0.41782492 -0.38883445
-0.22511171 -0.34752554 -0.39492592 -0.18466397 -0.068636626 -0.21593298 -0.3288097 -0.19610299
0.033321045 -0.108113945 -0.26191995 -0.09092373 -0.19825423 0.000986186 -0.07790895 -0.330124
0.024950998 -0.21374646 -0.3679637 -0.19654164 -0.05986481 -0.24024211 -0.11967309 -0.35643283
-0.052963972 -0.18648735 0.037071005 -0.14711758 -0.2535398 -0.39080736 -0.18245152 -0.39528963
0.18263268 -0.05601757 -0.2503363 -0.00030533553 -0.027849002 -0.023541871 0.11946083 -0.21731399
-0.3433445 0.09110771 -0.10208839 -0.10779978 -0.30707255 -0.0963072 -0.027683262 -0.016877629
-0.23791534 -0.10150774 -0.07173778 -0.28184506 0.123349674 -0.13349451 -0.34740147 -0.1349256
0.03925085 -0.35911104 -0.06193541 -0.3436051 -0.2600683 -0.35912105 -0.101835854 -0.045692842
-0.2707024 0.05451044 0.05247301 0.007502118 -0.04730754 -0.28097078 -0.073499374 -0.20387025
-0.18168479 -0.14709914 -0.2408359 0.050470643 -0.05264834 -0.20992254 -0.2080992 -0.23889153
-0.14639764 -0.1154946 -0.006142385 -0.11607749 -0.09468714 0.102670275 -0.15630375 -0.36001688
-0.03290145 0.05652753 -0.22283345 -0.14404629 -0.0064566154 -0.3366498 -0.21543442 0.03490024
0.059045717 -0.20142962 -0.2245424 -0.27878106 -0.23053628 -0.37750262 -0.20678693 0.08983957
-0.19257435 -0.1891791 0.021720603 -0.0072339852 -0.013919102 -0.3972542 -0.22945611 -0.20518403
-0.18040395 -0.041082952 -0.2746874 -0.009564004 -0.12989378 0.04755623 -0.2864676 -0.15345685

net.2.weight f4 [128, 256]
00000000: 08f5 dc3c 149b b3bd 000c b03b 779c cd3d
00000010: 19a5 a8bd 4692 193d 30c0 5d3c f52c 5f3d
00000020: 89cd 08be c871 84bd 30dc 5fbd 73ee b2bd
00000030: f9d3 8cbc 105d 27be 5efd ad3a 9ed9 92bd
00000040: c9fa 3c3d 1679 0ebd a06e 7dbd 81ea 8abd
00000050: 20b6 abbb 0914 0dbe 8477 28be 5101 5dbd
00000060: 2354 843c 9e02 f8bd f395 53bd f390 44bd
00000070: ef4f 0abe f8bc cfbd ef51 bcbc 302e 8bbd
00000080: 288d 14be 7dcf 06be 7a48 b4bd 8a0c 063e
00000090: 8d06 d93c 0328 253d 1ed0 f1bd cba3 3fbb
000000a0: 42f1 c13d de23 303d 724d aabd 1932 f9bd
000000b0: 06b7 943d 35c2 843c 3604 acbc 1cbd 1cbd
000000c0: e111 983c ac65 b23c 03ff d8bc 2808 97bd
000000d0: cd35 c6bd 9ba6 1fbd 8ed9 fdbc 9ded 0dbe
000000e0: e163 7cbc 65cf ce3c 6ade c9bd fa27 8cbd
000000f0: a050 00be 909d 72bd e6d8 2d3d b1ae e1bc
00000100: e559 bcbd 00ed 40be 1622 2bbe 04f4 7abc
00000110: fa2a c6bd d1d7 e2bd 7d3d fbbd d362 633d
00000120: e8df 833d c7ef 6abc d376 40bd c0b7 71bc
00000130: c0a6 20bd 4270 f6bd 7330 88bd ca43 c2bd
00000140: 14e3 32bd 2b36 0cbd 0f73 2dbd ba94 abbd
00000150: 5ac6 59bd a8ae 793c cb69 8f3d b4f7 94bd
00000160: b076 b53c 0bbf 983d d418 40be a612 0ebd
00000170: 6ce9 89b9 0637 f9bd 40e9 063e 3f90 423d
00000180: dae4 8cbd 4c58 acbd b636 fabd d964 633c
00000190: 6fb1 24be 0335 fa3c 42ba 9abc 827e 83bc
000001a0: bca9 30bd f679 94bd baba cfbd f841 4b3d
000001b0: 93f7 283d 13e0 02be 1343 a63c 0039 8a3c
000001c0: 347e bd3d 64bc 1dbe 4960 15be 8daa 8c3c
000001d0: 889f 90bd 267a cbbd 5481 babd 026d 49be
000001e0: 1dca 03be afea b1bd f04d 9bbd 4bcc 55bd
000001f0: 2393 bc3b 203a 2cbd 5290 0cbd 61dd d2bd
00000200: 0efa f7bd d31e 90bd a904 40be 4280 9ebd
00000210: 3574 30bd 6326 bbbd ce85 99bc ca39 53bd
00000220: 2f29 9ebd 8614 343d ec58 4d3d 587c 2abd
00000230: 44bc 1fbe 7256 f9bc bd15 5cbd fd11 e3bd
00000240: ef14 9bbd 0c6a a03c dc30 1cbd 2469 0e3a
00000250: f938 e03d 0b5e e6bd abc0 07be cdb1 bbbd
00000260: 51a5 9d3c 5b36 12bb 6ed1 90bc 68f7 3ebd
00000270: 7d82 9fbd 2cae e53c cc3b cbbd acbf d8bd
00000280: 1cf2 3cbd 6f0f a8ba bd7b 693c 5bf9 9fbd
00000290: 7106 af3c 6cb0 27be 01aa f6bd ab8f 0cbe
000002a0: 28f9 1cbe 7490 033e 0ab3 d2bd 96b1 293d
000002b0: f804 ad3d 10f2 1dbd fa0e fcbd adde f2bd
000002c0: d424 373c 0614 523d 5be0 d1bc 1351 90bd
000002d0: fa6a b8bc e3ac 9ebd da70 2c3d 1c0b 80bc
000002e0: 01b5 9fbc 3647 d13d 2f0b 9f3c 519c 77bd
000002f0: bed4 3dbe 7e9a 75bd f76f e6bd 803c 023c
00000300: 2069 08be 3854 32bd 88e0 92bd a86a 1fbe
00000310: 6e51 05be 93bb abbd 17c9 4e3d 4c10 82bc
00000320: aecf 86bd 7398 24bc 95c5 33bb 5d70 23be
00000330: 50aa 81bd 6097 88bc f044 c23d a093 6abd
00000340: 09a3 bebc 3493 f63c 7feb 3fbd a383 f8bd
00000350: 14b3 5abe c526 313a 8d5b dabd ef0e dabc
00000360: 2572 d0bb e817 6cbb 0d9b c5bd d0ae fbbd
00000370: 669a 02bc ed7f ed3c b17a 84bd 0a7f 893c
00000380: 3d89 d7bd 67c7 cc3d 57f1 70bd e6f2 92bd
00000390: 5323 76bd 111e 2abd adc5 fcbd 35fa efbc
000003a0: 363b 7f3d a47e ecbc 2c81 bcbd 66a5 f0bb
000003b0: 137e 84bd d2b5 30be f4b0 af3d 7113 713d
000003c0: 2608 4bbd 149e 62bd 95dc 6e3d 6fb6 9bbb
000003d0: f31f c4bd fc81 a2bd aa17 a83d 72ec 1abd
000003e0: 06bf 3ebb b010 d33d 25c9 8c3d 95a7 04be
000003f0: f22d 91bd d985 223b a7ae b7bd 7079 12be
0.026972309 -0.08769813 0.0053725243 0.10039609 -0.08234615 0.037493013 0.013534591 0.054486234
-0.13359655 -0.064670146 -0.054653347 -0.08736887 -0.01719092 -0.16344094 0.0013274362 -0.071704134
0.046137605 -0.034783445 -0.06187308 -0.06783009 -0.005240217 -0.13777174 -0.16451842 -0.053956334
0.0161534 -0.12109874 -0.051656675 -0.047989797 -0.13507055 -0.10143465 -0.022988288 -0.06795919
-0.14506972 -0.13165088 -0.08802886 0.13090721 0.026492381 0.04032136 -0.11807273 -0.0029241915
0.094698444 0.043002956 -0.08315553 -0.121677585 0.072614715 0.016205886 -0.020998102 -0.038266286
0.018563213 0.021776997 -0.026488787 -0.073746026 -0.096782304 -0.038977247 -0.030987527 -0.13860174
-0.015404672 0.025245378 -0.09856875 -0.068435624 -0.12530756 -0.059232295 0.04244318 -0.02754912
-0.091968335 -0.18840408 -0.16712222 -0.015316967 -0.09676166 -0.1107632 -0.12267587 0.055514168
0.06439191 -0.014339394 -0.04698832 -0.014753282 -0.039221525 -0.1203313 -0.06649866 -0.09485586
-0.04367359 -0.034231346 -0.042346057 -0.08377977 -0.05316768 0.015239395 0.070026 -0.07273808
0.022151321 0.074583136 -0.18759471 -0.034685753 -0.0002630459 -0.12168698 0.13174915 0.047500845
-0.068795875 -0.08415279 -0.122174665 0.013879024 -0.1608331 0.030542856 -0.018887643 -0.016051535
-0.04313062 -0.07249825 -0.10143037 0.04962346 0.04125173 -0.1278079 0.020295655 0.016872883
0.09252587 -0.15403897 -0.14587511 0.017171169 -0.07061678 -0.09935407 -0.09106699 -0.1967049
-0.12870069 -0.086873405 -0.07583225 -0.052196782 0.0057548448 -0.04204762 -0.034317322 -0.10296131
-0.12108241 -0.07037129 -0.18751778 -0.07739307 -0.043079574 -0.09138181 -0.01874056 -0.051568784
-0.07722699 0.043964885 0.05013363 -0.04162249 -0.15599161 -0.030436728 -0.05373167 -0.11087415
-0.07572352 0.019581817 -0.038132533 0.00054325373 0.10948367 -0.11248406 -0.13257091 -0.09164772
0.019243868 -0.002231023 -0.017677989 -0.046622664 -0.077885605 0.028037153 -0.09923515 -0.105834335
-0.04612933 -0.0012821982 0.014250693 -0.07811233 0.021365376 -0.16375893 -0.120441444 -0.1372668
-0.1532942 0.12848073 -0.10288055 0.041429125 0.08448213 -0.038560927 -0.12307544 -0.11858878
0.011178214 0.051288627 -0.025619676 -0.07046714 -0.022511948 -0.07747819 0.04209981 -0.015630297
-0.01949549 0.102186605 0.019414512 -0.06045181 -0.18538186 -0.05996179 -0.11251824 0.007948995
-0.13321352 -0.04353735 -0.07171732 -0.1556803 -0.13019344 -0.08385386 0.050484743 -0.015876912
-0.065825805 -0.010046112 -0.0027431 -0.15960832 -0.06331313 -0.016673744 0.09485805 -0.057269692
-0.0232711 0.030099489 -0.046855446 -0.12134483 -0.21357375 0.0006757791 -0.10661993 -0.026618449
-0.0063612633 -0.0036024991 -0.09648714 -0.12289202 -0.007971382 0.028991664 -0.06468714 0.01678421
-0.10524223 0.099989705 -0.05882391 -0.071752355 -0.06009228 -0.04153258 -0.12342391 -0.029294113
0.062312327 -0.02886898 -0.09204325 -0.007343936 -0.06469359 -0.17256859 0.08578673 0.05885643
-0.049568318 -0.055326536 0.058315832 -0.0047519724 -0.09576406 -0.07934949 0.082076386 -0.037823148
-0.0029105558 0.10305917 0.06874303 -0.12954552 -0.070888415 0.0024799018 -0.08968859 -0.14304137

net.2.bias f4 [128]
00000000: 6a75 a6bd d3c6 833c be51 47bd f03c cb3d
00000010: 3145 c7bd b621 7dbc 0814 3abd f18b 93bd
00000020: 58fb 3abc 5feb 89bd 90b9 acbd 8312 e0bc
00000030: 8f17 5fbc 9111 0cbd 7cd2 91bc f255 ecbd
00000040: 1e93 49bc 9b3f 063d 0fe2 4ebd 2ab0 d0bc
00000050: f4e2 b8bd ee09 e2bd 9bd3 bfbd 02af 8cbc
00000060: 92cf 0c3c f4eb 83ba bd76 ab3c 796c 573c
00000070: 39ec ddbd e905 efbc 8035 febb ad11 fabc
00000080: 9a89 7fbd 4510 dcbb 2527 60bd 68c1 07be
00000090: 91b4 a3bc c694 debc 43dd 72bc a2a9 35bd
000000a0: be6f 3cbc ae0f 8a3c 21d1 23bd 8e43 bfbd
000000b0: ae40 da3c 8bd7 9abd 210f d6bd b0b9 9bbc
000000c0: 5808 043d 307a d4bc 4c42 3abc 4bba 6fb9
000000d0: 1d76 0dbd 7950 77bd d832 b2bd 3b4f cb3c
000000e0: 4613 1ebc aa68 f2bd 7b4f d3b8 0e26 953c
000000f0: 7694 44bd 3a09 2b3d f683 333c b9cd 033c
00000100: f494 003e 0b10 593c 036a 79bd 0fd4 a2bd
00000110: d925 74bd e938 d3bd 5586 30bd 0fb5 b3bd
00000120: b352 d7bd 6185 7fbd d343 96bd 2c08 14bc
00000130: 4a48 1ebd f580 003b 6730 23bd 7ed1 803c
00000140: 55f7 5fbc 4384 81bc 642d 1a3b 5323 a0bc
00000150: c748 57bd 6032 9dbc aaa3 afbc be02 8abd
00000160: 94aa 6bbd d0cd f33c df85 093d d7ac 83bd
00000170: 5581 a2bd 2f2e 8ebd 0fc6 e0bc 9fab 50bd
00000180: 97d1 4c3c 8382 6ebd 74a3 a3bd 15bc 05be
00000190: 7fd6 a9bd 74d8 0e3c 01e8 95bd 3658 84bd
000001a0: 6948 0a3c 17f5 1ebd 2b74 5b3d 83f3 1abd
000001b0: c2d3 bebd b932 a2bd c319 47bd be01 a0bd
000001c0: fd99 903b fa6c a03c 9ef4 c0bd f644 84bd
000001d0: a278 7ebc b734 c1bd 1f18 cabc d829 2fbd
000001e0: 1802 99bd 8266 03bc f343 3dbc 6d02 5cbd
000001f0: 1854 b6bd 054c c13a 4742 c3bd cd74 5fbd
-0.08127864 0.016086018 -0.04866194 0.09923732 -0.09729994 -0.015449932 -0.04542926 -0.07204426
-0.011412464 -0.067343466 -0.08433831 -0.027352577 -0.013616457 -0.03419644 -0.017800562 -0.1153983
-0.012303142 0.032775503 -0.050508555 -0.025474627 -0.09027663 -0.1103705 -0.093665324 -0.017173294
0.0085944105 -0.0010064826 0.020930642 0.0131484205 -0.108360715 -0.029177623 -0.0077578425 -0.030526007
-0.062387086 -0.0067158067 -0.05472483 -0.13257372 -0.019983562 -0.02717055 -0.014823261 -0.044351228
-0.011501251 0.01685318 -0.039994363 -0.09339057 0.02664217 -0.07560643 -0.10452104 -0.019009441
0.03223452 -0.02593717 -0.0113683455 -0.00022862216 -0.03453647 -0.06037948 -0.08701104 0.024818053
-0.00964815 -0.11836369 -0.000100760684 0.018206622 -0.047993146 0.041756846 0.010956755 0.008044654
0.12556821 0.013248454 -0.060892116 -0.07950603 -0.059606407 -0.10313589 -0.04309686 -0.087747686
-0.105138205 -0.06238306 -0.07337155 -0.009035151 -0.03864316 0.0019608114 -0.039841082 0.015724894
-0.013669808 -0.015810138 0.002352559 -0.019548094 -0.05255964 -0.01918906 -0.021440346 -0.06738804
-0.057535723 0.029761225 0.033574935 -0.06429451 -0.079348244 -0.069424026 -0.027438192 -0.05094492
0.012501142 -0.058229934 -0.079901606 -0.13060029 -0.08292865 0.008718599 -0.07319642 -0.064621374
0.0084401155 -0.038807955 0.053577583 -0.037829887 -0.09317733 -0.07919831 -0.048608553 -0.07812832
0.004412888 0.019583214 -0.09421657 -0.06458466 -0.015531691 -0.09433883 -0.024669705 -0.042764515
-0.074711025 -0.008020045 -0.011551845 -0.05371325 -0.08902758 0.0014747387 -0.09534126 -0.05455475

net.4.weight f4 [1, 128]
00000000: 0bef 833c 4971 9bba 9e08 513c c4cf 7e3d
00000010: 1d98 0e3d 0840 9038 80e3 c23c 1e8c 3f3b
00000020: fde4 4bbb 8005 923c 3b6a afbc bcf1 fbbc
00000030: c6c1 14bd 4e81 7b3d f3cf 053c 6352 08bc
00000040: 4160 8a3b e827 1bbd dd40 a9bc ee6b c03c
00000050: e37d 963c 3d03 763d 9b6e 153c 0dc8 783b
00000060: e6be 893d e57d 64bc 6357 adbc c6d7 35ba
00000070: 0347 72bb 1d34 bc3a 6b71 473d a613 75bc
00000080: 1e35 383c a431 cfbb a1e8 763d 4de5 d5bc
00000090: 693e 1539 a10e ee3c 4eb8 e43b 2f79 183d
000000a0: ff1d f93a 438c 503d 95b0 613c 7465 c63c
000000b0: ddac 22bd c508 bb3c 1ce3 ae3c 1c11 283a
000000c0: d2c0 ba3d 3182 973c ec4c cd3a f16c 33bc
000000d0: 807e 85b9 a978 7b3d f5a4 183c faed 293c
000000e0: 9d91 81bc c8f4 6bbd 77a3 6c3d 157a 8c3d
000000f0: ae21 ad37 7222 b23c c966 73bc 8a85 b33c
00000100: ffdf 753d 2dfa aa3b f98f 913d 02e4 2abd
00000110: 1609 0f3d 26a8 99ba 5c84 97bc 5c51 923a
00000120: 12de a13b 127e de3b f14d 0cbd 73d8 b53d
00000130: 8b4a 523c 2b8e 91bc a002 79bd b60e 11bc
00000140: 1554 78ba e2d6 ae3a 0095 74bc 85be 1c3c
00000150: b44a 243c 50ec 2fbc fc1b eabc f5d3 673d
00000160: d948 b83c f29b 03bd 31c6 203d 4764 49bb
00000170: 6b4a fa3c e37c 9bbc 7132 37bd 86f0 fd3c
00000180: 2ecc 1fbc 17a9 8ebb 32e5 253d c009 053d
00000190: 85e1 3d3c fd73 563c aa0c 233d 28a9 343c
000001a0: 9a66 3bbc 5841 6c3d 4a29 6f3d d7ab e53b
000001b0: 9ed2 85bc 9409 1e3c ca77 4dbd c18b a73b
000001c0: 4141 20b9 fa8e 2c38 e3b3 f53c 58ca bc3b
000001d0: bb39 d23c 62cd 253a 8058 9ebb fe71 0a3c
000001e0: b24b d13a df35 6bbc 4355 23bd a7c2 f13c
000001f0: 7b9b ee3c 1ac3 333b 03ff d63c 9e89 d63c
0.016105196 -0.0011859323 0.012758402 0.06220986 0.034813035 6.878382e-05 0.023790121 0.0029227803
-0.003111183 0.017824888 -0.02141296 -0.030754916 -0.03631761 0.06140261 0.008167255 -0.008320424
0.0042229 -0.037879854 -0.020660812 0.023488965 0.018370574 0.060061682 0.009120609 0.0037961036
0.06725864 -0.013946031 -0.021159833 -0.0006936755 -0.0036968596 0.0014358793 0.04869215 -0.014958298
0.011243133 -0.0063230563 0.060280446 -0.026110316 0.00014232997 0.02905971 0.0069799786 0.037224945
0.0019006132 0.050915014 0.013775011 0.024218298 -0.039715637 0.02283133 0.021348529 0.0006411241
0.09118809 0.018494697 0.0015663183 -0.010951267 -0.00025461987 0.061394367 0.009316673 0.010371679
-0.015816504 -0.05760649 0.05777308 0.06859223 2.063889e-05 0.02174494 -0.014856049 0.021914262
0.060028072 0.0052178116 0.07107539 -0.04172135 0.034920774 -0.0011723086 -0.018495731 0.0011163163
0.004939803 0.006789931 -0.03425402 0.08879175 0.012835155 -0.017767986 -0.06079352 -0.008853605
-0.00094729784 0.0013339187 -0.0149281025 0.009566908 0.010027576 -0.010737494 -0.028577797 0.056598622
0.022495674 -0.032131143 0.03925151 -0.0030729936 0.030553063 -0.018980449 -0.04472584 0.03099848
-0.00975327 -0.004353653 0.04050178 0.03248 0.011589413 0.013089177 0.039807 0.011026658
-0.011438036 0.057679504 0.058388986 0.0070090103 -0.016335782 0.009645838 -0.050163068 0.0051130955
-0.00015283098 4.1141153e-05 0.029993003 0.005761426 0.025662294 0.0006324855 -0.0048323274 0.008450029
0.0015967994 -0.014356106 -0.039876234 0.029511763 0.029126873 0.0027429522 0.026244646 0.026188668
